hw2/submission/best_simple.ckpt (torch, 32922 bytes, 18 tensors)

model.0.weight f4 [100, 2]
0	0xbd891013	-0.06692519
1	0x3dc6ea66	0.09712677
2	0xbf414637	-0.75497764
3	0xbe8cc51c	-0.27494133
4	0xbf451023	-0.7697775
5	0xbf3a3fdd	-0.727537
6	0x3f21fa6d	0.63272744
7	0x3f218b84	0.6310351
8	0x3def31d3	0.11679425
9	0x3f3f305d	0.7468317
10	0xbec31a82	-0.3810616
11	0xbe9cc357	-0.30617782
12	0x3f23c50d	0.6397255
13	0xbe5553aa	-0.20832697
14	0x3d01d752	0.031699486
15	0x3f068726	0.5254997
16	0x3ef47517	0.47745582
17	0xbec49e5d	-0.38402072
18	0xbdf49707	-0.11942869
19	0xbf085b90	-0.53264713
20	0xbd17b3dc	-0.03703676
21	0xbece8c84	-0.4034158
22	0x3da72ce0	0.08162856
23	0xbdbf6e9b	-0.09347268
24	0x3f2255ff	0.6341247
25	0xbd9d2089	-0.07672221
26	0x3ecd47dc	0.40093887
27	0x3ebe5f48	0.3718207
28	0x3f07f62e	0.53110015
29	0xbe7be7cd	-0.24600144
30	0x3f225b80	0.6342087
31	0x3f295cc1	0.66157156
32	0xbdd141dd	-0.102176405
33	0x3ed324de	0.41239065
34	0x3f32f775	0.6990884
35	0xbef045c1	-0.46928218
36	0xbeba414a	-0.36377937
37	0x3ea65f45	0.3249456
38	0x3f124af7	0.5714564
39	0x3edb1571	0.42789796
40	0x3ddf1c3c	0.10894057
41	0x3f2ac4e8	0.66706705
42	0x3f32ed17	0.6989302
43	0xbf10d739	-0.56578404
44	0xbe8d57e0	-0.27606106
45	0x3f03d1ca	0.5149199
46	0x3f02ea64	0.511389
47	0xbea7cfff	-0.32775876
48	0xbd7f670d	-0.062354136
49	0x3f1c53f1	0.61065584
50	0xbf09b924	-0.5379813
51	0x3eb2d3d1	0.34927228
52	0x3e9b8551	0.3037515
53	0xbf4d84fb	-0.8028104
54	0xbf659ad9	-0.89689404
55	0x3d37f269	0.044908915
56	0x3ec4daba	0.38448125
57	0x3f128fd5	0.5725072
58	0x3d84887f	0.06471347
59	0x3f1728b4	0.59046483
60	0xbf0fdc5c	-0.56195617
61	0x3ee5d9f3	0.44892845
62	0xbf3d35da	-0.73910296
63	0x3efe4451	0.49661496
64	0xbd9e93bd	-0.077430226
65	0x3f07c693	0.53037375
66	0x3eab95f5	0.33512846
67	0xbed917f2	-0.4240108
68	0x3cd27cde	0.025694307
69	0x3d6ec556	0.058293663
70	0xbae5f914	-0.0017545545
71	0xbf086671	-0.53281313
72	0xbedf9689	-0.43669537
73	0xbed2640b	-0.41091952
74	0xbe9fb728	-0.31194425
75	0x3e985160	0.29749584
76	0x3ee9b86e	0.4564852
77	0x3f063321	0.52421767
78	0xbe626e6a	-0.22112432
79	0xbf2e99a4	-0.68203187
80	0x3e4dad91	0.20085742
81	0x3f57a644	0.84238076
82	0x3ebdfed6	0.37108487
83	0xbf158a11	-0.584138
84	0xbdc178d5	-0.09446875
85	0x3df93e1f	0.12170052
86	0x3f0dd726	0.55406415
87	0x3ec3e199	0.38258055
88	0xbee232b3	-0.44179305
89	0xbf0bc86e	-0.54602706
90	0x3e614f0d	0.22002812
91	0x3e94a5b0	0.2903266
92	0x3eb05ce6	0.34445876
93	0x3f3a2115	0.7270673
94	0x3f36fad2	0.7147647
95	0xbea09f42	-0.31371504
96	0xbf50edf7	-0.81613106
97	0x3e98d5fb	0.29850754
98	0x3f4c58ae	0.79822814
99	0xbeee442d	-0.4653639
100	0xbdca925d	-0.09891198
101	0x3f25ff91	0.6484309
102	0x3f1a19e1	0.6019574
103	0xbe40a233	-0.18811874
104	0xbeff203a	-0.49829274
105	0x3e26209d	0.16223378
106	0xbf698ef8	-0.9123378
107	0xbe7270d2	-0.2367585
108	0xbb9506bf	-0.0045479233
109	0xbda473df	-0.08029913
110	0x3e8df60c	0.2772678
111	0x3d539a39	0.05166075
112	0xbf1fd670	-0.6243658
113	0xbde6ac2b	-0.11263307
114	0x3e0764fd	0.13222118
115	0x3f0bd9e5	0.54629356
116	0xbe63ed56	-0.22258505
117	0xbe934b56	-0.28768414
118	0x3e1ce8c7	0.15323173
119	0x3f0966b7	0.53672355
120	0x3dc98fbe	0.0984187
121	0xbee1ef19	-0.4412773
122	0x3e026900	0.12735367
123	0x3e905427	0.28189203
124	0x3ef41679	0.47673395
125	0xbe8551d0	-0.2603898
126	0x3d38faad	0.045160938
127	0x3e779b95	0.24180444
128	0xbe0354b4	-0.1282528
129	0x3eeecda2	0.4664126
130	0x3d9662f8	0.073430955
131	0x3f3739be	0.7157248
132	0x3d198bd2	0.03748686
133	0xbe047ed2	-0.12939003
134	0x3d9e5f67	0.0773304
135	0x3e88e7ee	0.26739448
136	0x3f14918a	0.58034575
137	0xbe694248	-0.2277919
138	0x3f088bb6	0.5333818
139	0xbd8a2ec7	-0.06747203
140	0x3e0ad576	0.13557991
141	0x3eb9afb8	0.36266875
142	0xbf5274cc	-0.8220947
143	0xbbc3e976	-0.0059787584
144	0x3eda0623	0.42582807
145	0x3e81ea17	0.2537391
146	0x3d8bddda	0.06829424
147	0x3d3adb9e	0.0456196
148	0x3e888b08	0.26668572
149	0x3eb3ac9c	0.35092628
150	0xbeb24f03	-0.34825906
151	0x3e8eb311	0.27870992
152	0xbf32e8ce	-0.6988648
153	0x3d16db8b	0.036830466
154	0xbeaf5a35	-0.3424851
155	0xbeb208e4	-0.34772408
156	0xbf16f790	-0.589715
157	0x3edaa40c	0.42703283
158	0x3e220b98	0.15824735
159	0x3e4d7ea1	0.20067836
160	0xbe34b1b9	-0.17645921
161	0xbecea704	-0.40361798
162	0xbf2d60b0	-0.6772566
163	0x3d6c68e5	0.057717223
164	0xbf3239cd	-0.69619447
165	0xbe40ed90	-0.18840623
166	0x3ee71114	0.45130217
167	0x3f0fb908	0.5614171
168	0xbe772803	-0.24136357
169	0xbf57119e	-0.84011257
170	0x3f1db2ee	0.6160115
171	0x3f3866dd	0.72031957
172	0x3f10f32e	0.5662106
173	0x3cc6d60e	0.024271991
174	0xbe906be0	-0.28207302
175	0x3c3262d5	0.010887821
176	0x3e23d35e	0.15998599
177	0x3e84612d	0.2585539
178	0xbedbd8ee	-0.42938942
179	0x3f20ada0	0.6276493
180	0x3e8b276e	0.2717852
181	0xbe42b562	-0.19014505
182	0xbf2ec682	-0.6827165
183	0xbe92e10b	-0.2868732
184	0xbea7ca76	-0.32771653
185	0xbc931be4	-0.017957635
186	0x3e1bf8b2	0.15231588
187	0x3d1c4146	0.038148187
188	0x3d683216	0.05668839
189	0xbecbb5a7	-0.39787027
190	0xbd81899b	-0.06325074
191	0x3eb55acd	0.35420838
192	0x3f4e26ef	0.8052816
193	0xbf2dd108	-0.6789708
194	0xbba929d4	-0.005162457
195	0x3ec82420	0.3909006
196	0xbb3ec64d	-0.0029109896
197	0x3e8921d0	0.2678361
198	0x3eecc60c	0.46244848
199	0xbf5043cb	-0.81353444

model.0.bias f4 [100]
0	0x3f1c4b8b	0.6105277
1	0xbf38b7af	-0.7215528
2	0x3e1e23c2	0.15443328
3	0x3f19b06b	0.6003482
4	0xbe8cb876	-0.27484483
5	0xbd7fb986	-0.06243279
6	0xbf206d7c	-0.6266706
7	0x3dfda55a	0.12385054
8	0x3e5c6823	0.215241
9	0x3e4f6da7	0.20256673
10	0x3e03cb82	0.12870601
11	0xbe40a73b	-0.18813793
12	0xbe82ea1c	-0.25569236
13	0x3eeaa815	0.4583136
14	0x3d59e708	0.053198844
15	0x3e8329a8	0.2561772
16	0x3f1ca669	0.6119142
17	0xbe8e879b	-0.27837834
18	0x3dd17103	0.102266334
19	0x3f16e796	0.5894712
20	0x3f5b06d8	0.8555732
21	0xbf3bbc4a	-0.7333418
22	0xbf0df9d0	-0.5545931
23	0xbe975a5d	-0.2956113
24	0x3ece1124	0.40247452
25	0xbdae323e	-0.08505677
26	0x3eaf4fc2	0.34240538
27	0xbf11ab4a	-0.5690199
28	0xbede8154	-0.43458045
29	0x3f31e465	0.6948913
30	0x3e2436c5	0.16036518
31	0x3e16f863	0.1474319
32	0x3ecba590	0.39774752
33	0x3ec3dd0e	0.3825459
34	0x3e93f0d7	0.28894684
35	0x3c41069a	0.011781359
36	0xbd402e42	-0.046919115
37	0xbf54d87e	-0.8314284
38	0xbeb77199	-0.35828856
39	0x3f11233b	0.5669438
40	0xbf17a491	-0.59235483
41	0x3e9fc85c	0.3120755
42	0xbeb66738	-0.35625625
43	0x3e885cbd	0.26633254
44	0x3ec77778	0.38958335
45	0x3f126592	0.57186234
46	0xbf194b6e	-0.5988072
47	0xbe031faa	-0.12805048
48	0xbeb1d056	-0.3472926
49	0x3da41115	0.08011071
50	0xbed869f2	-0.4226833
51	0x3c416faa	0.011806408
52	0xbf14eeae	-0.58176696
53	0xbda56dd6	-0.0807759
54	0xbf2d894c	-0.67787623
55	0xbf1e577c	-0.6185224
56	0x3eb30f76	0.34972733
57	0x3e85b99f	0.2611818
58	0xbea59374	-0.3233906
59	0xbef4de79	-0.47825983
60	0x3f1a667e	0.6031264
61	0xbe46904d	-0.19390984
62	0x3d6fc6b3	0.058539104
63	0x3f2f5af1	0.6849814
64	0x3f7665af	0.96248907
65	0x3dd9b4f9	0.10630221
66	0x3ea1e80d	0.31622353
67	0xbe7aba44	-0.24485117
68	0xbf0e984f	-0.55701154
69	0x3e84890d	0.2588581
70	0x3d00e6f8	0.03147027
71	0x3e59ee57	0.21282326
72	0x3df9edb1	0.12203539
73	0x3f14bcd5	0.58100635
74	0xbe34a7ea	-0.17642179
75	0x3e84f15b	0.2596539
76	0x3f107d62	0.5644132
77	0x3d22c617	0.039739694
78	0x3ec4c8c6	0.38434428
79	0x3f6d7804	0.92761254
80	0xbd9afce3	-0.075677656
81	0x3f535ccc	0.8256347
82	0xbf3e68f7	-0.74378914
83	0x3d5611d7	0.052263107
84	0x3e633668	0.22188723
85	0xbf1da6fc	-0.6158292
86	0xbf317864	-0.69324327
87	0xbe44ce5e	-0.19219348
88	0xbe6d23b9	-0.23158158
89	0x3f5514a0	0.83234596
90	0xbeceb589	-0.40372875
91	0x3f4c47b4	0.7979691
92	0xbed15267	-0.4088318
93	0x3c8cf9fc	0.017209046
94	0x3ecea1f0	0.40357924
95	0x3f2716c8	0.65269136
96	0xbe8ec1b2	-0.27882153
97	0x3f0d7af1	0.5526572
98	0x3ecb9596	0.39762563
99	0xbf0f91dd	-0.56081945

model.2.weight f4 [16, 100]
0	0x3e9570f8	0.2918775
1	0x3e700998	0.2344116
2	0x3e0cd37d	0.13752551
3	0x3d98795c	0.074450225
4	0x3d466481	0.04843569
5	0x3ded1259	0.11575765
6	0xbddd1d39	-0.107965894
7	0x3dfcc451	0.12342132
8	0x3d871ada	0.065969184
9	0x3d830aa6	0.063985154
10	0x3d952872	0.07283105
11	0xbe1bb2b9	-0.15204896
12	0xbd9190f0	-0.07107723
13	0x3d8de261	0.06927944
14	0xbdef518f	-0.11685478
15	0xbd17052d	-0.03687017
16	0x3d2e8573	0.042607736
17	0xbd13731d	-0.035998452
18	0x3e319665	0.17342527
19	0xbc5d946c	-0.013524156
20	0x3e49b066	0.19696197
21	0xbe0218de	-0.12704799
22	0x3cf0b2db	0.02938216
23	0xbe29037c	-0.16505235
24	0x3cf5581c	0.02994924
25	0x3e0dcd65	0.13847883
26	0x3d842989	0.06453235
27	0x3da33a08	0.07970053
28	0xbd700102	-0.05859471
29	0x3e176126	0.14783153
30	0x3e036da6	0.12834796
31	0x3e3f116c	0.1865899
32	0x3e633701	0.22188951
33	0x3e0cabfe	0.13737485
34	0x3e4bc10e	0.19897863
35	0x3e0df4f6	0.13862976
36	0x3d955f78	0.072936
37	0x3d9e99e2	0.077441946
38	0xbe5ffdaf	-0.21874116
39	0x3e28063a	0.16408625
40	0x3c9bbcf0	0.01901099
41	0x3d84c536	0.064829275
42	0x3e076ef2	0.13225916
43	0xbe0c4031	-0.13696362
44	0x3ded7903	0.11595347
45	0x3e50be92	0.20385197
46	0xbe983c68	-0.29733586
47	0xbce62fd3	-0.028098976
48	0x3e2a9f92	0.16662434
49	0xbdda06a5	-0.106457986
50	0x3e328129	0.17432083
51	0xbdd4ad4b	-0.103846155
52	0x3e3db497	0.18525921
53	0x3e1f5e28	0.15563262
54	0x3ca1d744	0.019755967
55	0xbdb8fa42	-0.09032108
56	0x3e55fca4	0.20897156
57	0x3ce70139	0.028198825
58	0x3d0fd6b4	0.035116866
59	0xbe61847d	-0.22023197
60	0x3db4320c	0.08798608
61	0xbe3ebeae	-0.18627426
62	0xbddbfcfa	-0.10741611
63	0x3d854e82	0.06509115
64	0x3e46fc90	0.19432282
65	0x3e474b59	0.19462337
66	0x3e50d9b0	0.20395541
67	0xbc8f89a4	-0.017521687
68	0xbe31b3cb	-0.17353742
69	0xbd9e791b	-0.07737943
70	0x3e162d9b	0.14665835
71	0x3e32926e	0.17438671
72	0x3c96673f	0.018359778
73	0x3e735e59	0.2376646
74	0xbdfccd0c	-0.12343797
75	0x3da3fe4c	0.08007488
76	0x3e898b41	0.26864055
77	0x3de549c3	0.111957096
78	0x3d38991c	0.04506789
79	0x3e875c2f	0.26437518
80	0x3d24622c	0.040132686
81	0x3e544983	0.20731167
82	0x3e87e019	0.2653816
83	0xbcd1ffd9	-0.025634693
84	0x3dc4094a	0.09572084
85	0xbe51f97f	-0.20505331
86	0xbd80abe3	-0.06282785
87	0x3e1d35c8	0.15352547
88	0xbe1a08a1	-0.15042354
89	0x3e69f22a	0.22846285
90	0xbd665dbf	-0.056241747
91	0x3e2a4a4b	0.16629903
92	0x3e18cb10	0.14921212
93	0x3d097da1	0.033567075
94	0x3e2041af	0.15650056
95	0x3ddb1141	0.1069665
96	0xbdd25b4e	-0.10271321
97	0x3e5d39bc	0.21604055
98	0x3dcfa62d	0.101391174
99	0xbc52cc3b	-0.012866075
100	0xbd2fdab0	-0.042933166
101	0xbe21c009	-0.15795912
102	0xbdb200e4	-0.08691576
103	0xbdfedcee	-0.12444483
104	0xbd6ab51e	-0.057301633
105	0xbddfa22e	-0.10919605
106	0x3e19c3aa	0.15016046
107	0xbdaa124b	-0.0830427
108	0x3dd437d0	0.10362208
109	0xbd40fb47	-0.047114637
110	0xbdc94df7	-0.09829324
111	0xbcb11d71	-0.021620484
112	0x3c36d9c7	0.011160321
113	0xbcbea752	-0.023273144
114	0x3e2ce098	0.1688255
115	0xbe0ac30d	-0.13550968
116	0x3d3187e0	0.04334247
117	0x3dcbb46f	0.09946524
118	0x3a9ef622	0.0012127797
119	0xbd86f2b2	-0.06589259
120	0x3da23638	0.07920498
121	0x3e1e21d2	0.15442589
122	0x3d00f543	0.0314839
123	0x3e50ed8f	0.20403121
124	0x3de551fe	0.111972794
125	0x3ddc0c4c	0.10744533
126	0x3a5d7aec	0.0008448798
127	0xbd577fe9	-0.05261222
128	0xbe0d4980	-0.1379757
129	0xbd346bea	-0.044048227
130	0x3dd47b1d	0.103750445
131	0x3dd6d31a	0.10489483
132	0xbcd0e651	-0.025500448
133	0xbbe56667	-0.0070007327
134	0x3cdb3508	0.026758686
135	0xbd633c23	-0.055477273
136	0xbdf070c9	-0.11740262
137	0xbd0c3ebc	-0.034239516
138	0xbbd834a9	-0.0065980745
139	0x3c2ce824	0.0105533935
140	0xbdd4eca4	-0.10396698
141	0x3e08dc31	0.13365246
142	0xbe02c31f	-0.12769745
143	0xbdcf47dd	-0.10121129
144	0xbca56ce6	-0.020193528
145	0x3da8e3c9	0.082465716
146	0xbddcecab	-0.10787328
147	0x3e13c5c6	0.14430913
148	0xbcbbc1ba	-0.022919524
149	0x3dff8346	0.1247621
150	0xbd050455	-0.032474834
151	0x3da491cc	0.08035621
152	0xbd3dfe4f	-0.046385106
153	0x3c43a9f8	0.011942379
154	0xba8aee57	-0.0010599595
155	0x3d8228ea	0.0635546
156	0xbd84163f	-0.064495556
157	0xbb043a30	-0.0020176284
158	0x3e84e825	0.25958362
159	0xbda725cd	-0.08161507
160	0x3d53b188	0.05168298
161	0x3c77ee41	0.015132488
162	0x3dfaf0d4	0.122529656
163	0x3d65db58	0.056117386
164	0x3daa34f7	0.083108835
165	0x3da6a858	0.08137578
166	0xbd06d6ae	-0.03291958
167	0x3cbc2768	0.02296801
168	0x3dc35b02	0.09538843
169	0x3dbeff07	0.09325986
170	0x3d49d7d4	0.049278095
171	0xbc7f7823	-0.015592608
172	0x3c9b433b	0.018952956
173	0xbcc75b30	-0.024335474
174	0xbe020f9c	-0.12701267
175	0x3cd716f6	0.026256066
176	0x3e1b46e2	0.15163758
177	0xbd50910c	-0.050919577
178	0x3e201062	0.1563125
179	0x3e0180a7	0.12646733
180	0xbd999ab0	-0.075002074
181	0x3de4dc78	0.111748636
182	0xbe4c7f96	-0.19970545
183	0xbdcabd18	-0.09899348
184	0xbc574240	-0.013138354
185	0xbdebf176	-0.115206644
186	0x3ca8f480	0.0206244
187	0x3cbef74e	0.023311283
188	0xbd8c0809	-0.0683747
189	0x3e57789c	0.21042103
190	0x3d3daf0a	0.04630951
191	0x3c4e4b88	0.01259125
192	0xbe2c4777	-0.16824137
193	0x3dc41fd2	0.09576382
194	0x3dcf8da1	0.101344354
195	0x3cb7ba80	0.022427797
196	0x3d6a7a84	0.057245746
197	0xbd3b8247	-0.04577854
198	0x3cd79f2f	0.026321022
199	0x3d989c59	0.07451696
200	0x3d8bde4e	0.06829511
201	0xbba3a196	-0.004993628
202	0xbe0ca90c	-0.13736361
203	0x3e7719ef	0.24130987
204	0x3e38cc5e	0.1804671
205	0xbe162b7e	-0.14665028
206	0x3de3f190	0.11130059
207	0x3e47fb5c	0.1952948
208	0x3e7a19ea	0.24423948
209	0xbd1b7fc9	-0.037963662
210	0xbda9119e	-0.08255313
211	0x3debd03b	0.11514326
212	0x3d9310cf	0.0718094
213	0x3d7ab4cb	0.061207574
214	0x3e3e8d18	0.1860851
215	0x3e430887	0.19046222
216	0x3d96f7fa	0.073715165
217	0x3ddd0eda	0.10793848
218	0xbd5770c9	-0.052597795
219	0x3e2ae160	0.16687536
220	0x3e13d2f1	0.14435937
221	0x3da86dfc	0.08224103
222	0x3da3f615	0.08005921
223	0x3e1ac2b2	0.15113333
224	0x3debab02	0.115072265
225	0x3cbe9d44	0.02326835
226	0x3dad2a0b	0.08455285
227	0xbe224b39	-0.15849008
228	0x3e374ce1	0.1790042
229	0x3e275b73	0.16343479
230	0xbe7606d5	-0.24026044
231	0xbe49193b	-0.19638531
232	0x3e0da57f	0.13832663
233	0x3e016f26	0.12640056
234	0x3e238f77	0.15972696
235	0xbbe336f3	-0.0069340407
236	0xbd8f7ea6	-0.07006578
237	0x3cfa848d	0.030580783
238	0x3e82f6ff	0.25579068
239	0xbe1d5dd4	-0.15367824
240	0x3e67f946	0.22653684
241	0x3e33e0a5	0.17566164
242	0xbdb7d5be	-0.08976315
243	0x3e86409f	0.26221177
244	0xbdb6f880	-0.08934116
245	0x3e648108	0.22314847
246	0x3e8985db	0.26859936
247	0x3e5a3642	0.2130976
248	0xbe3bd035	-0.18341143
249	0x3e62e6f8	0.2215842
250	0x3e5b79cb	0.21433179
251	0x3e3b1ede	0.18273494
252	0xbe08cfa7	-0.13360463
253	0xbe503f22	-0.20336583
254	0xbdcd722c	-0.10031542
255	0x3dd71c09	0.10503394

model.2.bias f4 [16]
0	0x3ea0b604	0.31388867
1	0xbd5bbf6f	-0.053649362
2	0x3de0aca1	0.10970426
3	0xbce25461	-0.027628126
4	0xbd1342b1	-0.035952274
5	0x3dceea28	0.101032555
6	0x3dd4652b	0.10370859
7	0x3e6bb9d6	0.2302011
8	0xbd80a6c2	-0.062818065
9	0x3d6c8b3a	0.057749964
10	0xbd7adb13	-0.06124408
11	0x3c8b3910	0.016994983
12	0xbcfcd45c	-0.03086298
13	0xbd2105bb	-0.039312106
14	0x3e6f9334	0.23395997
15	0x3e7b27ea	0.24526945

model.4.weight f4 [4, 16]
0	0x3e7bbc4d	0.2458355
1	0xbe8971bd	-0.26844588
2	0xbed5d567	-0.41764376
3	0xbdc7cf7a	-0.0975637
4	0xbdfba8c3	-0.12288048
5	0xbe80bda1	-0.25144675
6	0x3e67442d	0.22584601
7	0xbe6cd5a7	-0.23128377
8	0xbcd4ea70	-0.025990695
9	0x3e9a3a4c	0.30122602
10	0xbdaf65a1	-0.08564306
11	0x3e3f860a	0.18703476
12	0xbea6fb18	-0.32613444
13	0xbb9c138e	-0.0047630733
14	0xbe48a7c1	-0.19595243
15	0xbecb332b	-0.39687476
16	0xbea1cb00	-0.3160019
17	0x3e2adf66	0.16686782
18	0x3d2e8253	0.042604756
19	0x3e077ab0	0.13230395
20	0x3e621b61	0.22080757
21	0xbe8263b6	-0.25466698
22	0xbe738ead	-0.23784895
23	0xbe113e73	-0.14183979
24	0x3e653416	0.2238315
25	0x3cd6eec4	0.0262369
26	0x3c84ea21	0.016224923
27	0x3e490814	0.19631988
28	0x3ebba504	0.36649334
29	0xbe02a2eb	-0.12757461
30	0xbe871319	-0.26381758
31	0xbec9d22f	-0.3941817
32	0x3e41368c	0.18868464
33	0x3d21d7ab	0.039512318
34	0xbe8f40e1	-0.27979186
35	0xbdaad09a	-0.08340569
36	0xbe2a1a55	-0.16611607
37	0xbe85231e	-0.26003355
38	0x3dcbbcaa	0.09948094
39	0x3eccff81	0.40038684
40	0xbce48480	-0.027895212
41	0xbe4bcf6f	-0.19903348
42	0xbdc18d8e	-0.094508275
43	0xbea87d81	-0.32908252
44	0xbe4477a3	-0.19186263
45	0x3d800609	0.06251151
46	0x3e82d111	0.2555013
47	0x3e394295	0.18091805
48	0x3dbfb198	0.09360045
49	0xbe39a44b	-0.18129079
50	0x3e648851	0.22317626
51	0x3d582305	0.052767772
52	0xbd39930d	-0.045306254
53	0x3eadd8e6	0.33954543
54	0xbe5e4d53	-0.21709184
55	0xbd0224d2	-0.031773396
56	0x3e7769f6	0.24161515
57	0x3d9fe3c8	0.07807118
58	0xbe9837ac	-0.29729974
59	0xbe5a4c6c	-0.21318215
60	0x3c3d6518	0.011559747
61	0xbdd2b013	-0.1028749
62	0x3d2a863a	0.041631915
63	0x3dd9ba27	0.10631209

model.4.bias f4 [4]
0	0x3e807bc0	0.25094414
1	0x3bbd9ca7	0.0057864967
2	0xbe2e7cad	-0.17039748
3	0x3d616b82	0.055034168

exp_avg f4 [100, 2]
0	0x3b703514	0.003665273
1	0xbad5148a	-0.0016256731
2	0xbb3c91b8	-0.0028773379
3	0x3a0bf2e0	0.00053386204
4	0xbb152397	-0.002275681
5	0x3a245a3a	0.00062695483
6	0x3b2f55f8	0.0026754122
7	0xba36b5c0	-0.0006969832
8	0x3a048a00	0.0005055964
9	0xb98b1d00	-0.00026533753
10	0xbad520b4	-0.0016260357
11	0x3a152a4e	0.0005690203
12	0xbaef5e11	-0.0018262287
13	0x3a9ddfb4	0.0012044818
14	0x3a8173b8	0.0009876406
15	0xb9eb377e	-0.00044864038
16	0xba83268b	-0.0010005994
17	0x3a0dba00	0.00054064393
18	0xb81a386a	-3.6769e-05
19	0xb9dafe7c	-0.00041769806
20	0xba8dca0a	-0.0010817659
21	0xb89d9887	-7.514754e-05
22	0xba42c0ab	-0.00074292225
23	0x39dfc35a	0.00042679423
24	0xba2f722c	-0.0006692733
25	0x3a135d7d	0.0005621536
26	0x3a82fb1a	0.0009993047
27	0xb9d7f659	-0.0004119154
28	0xba0fb0c5	-0.0005481358
29	0x39d276df	0.00040142887
30	0x3afe5e44	0.0019406755
31	0xba9340d3	-0.0011234529
32	0x3b0e4c1a	0.002171284
33	0xba1f9dfa	-0.0006088909
34	0xbacceda9	-0.0015634793
35	0x3a144f40	0.0005657561
36	0xb981cdcd	-0.0002475813
37	0x39e79053	0.00044167283
38	0x3a4cfaa8	0.0007819333
39	0xba424afe	-0.00074116874
40	0x3b9e6bab	0.0048346124
41	0xbb0d9897	-0.0021605843
42	0xbb2e71e1	-0.002661817
43	0x3a868fea	0.0010266278
44	0xb9128a4f	-0.00013975169
45	0xb96003f0	-0.00021363772
46	0xbafa3e5e	-0.0019092073
47	0x3a65c3f2	0.0008764855
48	0x3b0095c2	0.0019620513
49	0xba4e7edc	-0.000787718
50	0xb998d0e0	-0.00029147323
51	0x3a161b14	0.0005726081
52	0xbadde699	-0.0016929685
53	0x392b4060	0.00016331812
54	0xbaa7aa1b	-0.0012791784
55	0x3aa5765e	0.0012623777
56	0x3a44b2cc	0.00075034495
57	0xba35cd5f	-0.0006935205
58	0x3ba81713	0.005129704
59	0xbb07d7cd	-0.0020727993
60	0x391e20e8	0.00015080313
61	0x39d6aef3	0.00040947608
62	0x3a0c1570	0.00053437706
63	0x39e1f596	0.0004309832
64	0x3b2b2ef6	0.002612052
65	0xba884c5c	-0.0010398733
66	0xba0b34cb	-0.0005310296
67	0x3886f32e	6.434914e-05
68	0x3b3d7554	0.0028909044
69	0xbaada5d1	-0.001324827
70	0xba243116	-0.0006263418
71	0xb8c232a6	-9.260075e-05
72	0xbb1bc067	-0.0023765804
73	0x3a646f01	0.00087140506
74	0xba175c2e	-0.0005773929
75	0x3a094548	0.0005236459
76	0x3a7e455b	0.0009699666
77	0xba9a4d98	-0.0011772392
78	0xb993049e	-0.00028041465
79	0xb9cc818a	-0.00039006426
80	0xba3fbc98	-0.00073141744
81	0x3927fb9e	0.00016020096
82	0xbacc70d0	-0.0015597586
83	0x397591b4	0.000234193
84	0xbad4403a	-0.0016193457
85	0x3a7c2cfe	0.00096197415
86	0x3a259067	0.0006315768
87	0xba03610c	-0.00050117145
88	0xba9b547f	-0.0011850743
89	0x395592b2	0.00020367911
90	0x3b5ca7b0	0.0033669285
91	0xbac6c9b7	-0.0015166317
92	0x3a919ab9	0.0011108733
93	0xba98a4b7	-0.0011645769
94	0xbaa80e0d	-0.001282157
95	0x39e9857c	0.00044540677
96	0xba0155d0	-0.00049337465
97	0x3aa2b721	0.0012414196
98	0xba8d8f7a	-0.0010800206
99	0x3a1bc813	0.0005942594
100	0xb9b1a45e	-0.00033882534
101	0x37e7b0cc	2.7619673e-05
102	0xbaa1338d	-0.0012298689
103	0x3a1ed0a4	0.00060583116
104	0xbac17e38	-0.0014762348
105	0x3a97e0fd	0.0011587437
106	0xbb0cef11	-0.00215048
107	0x3a99e358	0.0011740727
108	0xaed6edbe	-9.773825e-11
109	0xaf576e3c	-1.9593299e-10
110	0xba30d460	-0.00067455135
111	0x38cab8fa	9.666565e-05
112	0xba8aa020	-0.0010576285
113	0xb932715c	-0.00017017632
114	0x3b5b104c	0.0033426462
115	0xbaaeceae	-0.0013336742
116	0x393e9e80	0.00018178858
117	0xb89d4cc8	-7.500645e-05
118	0xba7c06c6	-0.00096140464
119	0xb8f9e990	-0.0001191675
120	0xbaaff6a2	-0.0013424943
121	0xb8d2ad8e	-0.000100459074
122	0x39a48e72	0.00031386648
123	0xb9a2dc29	-0.0003106308
124	0xba680e66	-0.0008852243
125	0x3a268867	0.0006352723
126	0x3b48b9cf	0.0030628329
127	0xba94421c	-0.0011311206
128	0x3b8eff16	0.0043639047
129	0xbace3450	-0.0015732143
130	0x3a8f7244	0.0010944088
131	0xba1211a7	-0.00055720884
132	0xb99f8caf	-0.0003043166
133	0xb90d401e	-0.00013470693
134	0xba8388b2	-0.0010035245
135	0xb81c2efd	-3.723706e-05
136	0xbac00472	-0.0014649762
137	0x3a89faf7	0.0010527064
138	0xb92a2e1c	-0.0001622964
139	0x39b3fdb8	0.00034330576
140	0x3adfec85	0.0017084038
141	0xba76fb72	-0.00094216235
142	0xba16c712	-0.00057517097
143	0x3a6ec1ca	0.00091078563
144	0x3a05a5cf	0.0005098255
145	0xb9f6ea4d	-0.00047095344
146	0x3b0f2de9	0.0021847433
147	0xba883508	-0.0010391781
148	0x3abde39f	0.0014487392
149	0xba58e34a	-0.0008273615
150	0x373643c6	1.0863825e-05
151	0x3a2222ab	0.00061849755
152	0xba020226	-0.00049594266
153	0x3a3eac6f	0.00072736194
154	0xbaf66b13	-0.0018800221
155	0x3a2cbe92	0.00065896765
156	0xba24752c	-0.00062735635
157	0x39d7bd13	0.00041148867
158	0x3b7a992b	0.0038238268
159	0xbadc5ff2	-0.0016813262
160	0xba0bf3c0	-0.0005338751
161	0xb9c57a87	-0.00037666058
162	0x3945f77e	0.00018879582
163	0xba212a42	-0.00061479595
164	0xbb459165	-0.0030146476
165	0x3a509b3a	0.0007957701
166	0x3aca4fbb	0.0015435138
167	0xba54c1a3	-0.00081160123
168	0xba3a6954	-0.0007111032
169	0xb9aa4af0	-0.0003248076
170	0x3a873be1	0.0010317528
171	0xbaae5f78	-0.0013303598
172	0xba7f2f8a	-0.0009734562
173	0xb9d7887e	-0.0004110969
174	0xbab94fed	-0.00141382
175	0x3aa4b5a4	0.001256634
176	0x3981d550	0.00024763728
177	0xbaaeb041	-0.0013327674
178	0x3a600104	0.0008545073
179	0xb91ee1b9	-0.00015152142
180	0xbac55c22	-0.0015057365
181	0x3a3d60f8	0.00072242273
182	0xba9057b2	-0.0011012463
183	0x39ec8824	0.0004511486
184	0xbb3653dd	-0.0027820983
185	0x3ae12353	0.0017176665
186	0xb922ddf8	-0.00015532214
187	0x38066150	3.203872e-05
188	0xb97bc22d	-0.00024009561
189	0xb8fb38e9	-0.00011979213
190	0x3b94a7ae	0.0045365905
191	0xbab84503	-0.0014058653
192	0xbad96de6	-0.0016588538
193	0x3a0d7bc8	0.0005397168
194	0x3b559c1f	0.0032594276
195	0xbab2cd1f	-0.0013641453
196	0x3b8af97f	0.004241168
197	0xbac98b93	-0.0015376679
198	0xbae894c9	-0.0017744537
199	0x39e27f88	0.00043201097

exp_avg_sq f4 [100, 2]
0	0x3794854c	1.7705046e-05
1	0x36f2ea11	7.239411e-06
2	0x37787df3	1.4811277e-05
3	0x3749ee20	1.2035976e-05
4	0x37687a0b	1.3856693e-05
5	0x379eb433	1.891898e-05
6	0x37d6e4ce	2.5617333e-05
7	0x3722dea3	9.707789e-06
8	0x36a917a3	5.039344e-06
9	0x35e9cf72	1.7420227e-06
10	0x36c4f6bc	5.869979e-06
11	0x371e0855	9.419474e-06
12	0x3786f08d	1.608606e-05
13	0x3795989d	1.783325e-05
14	0x36b51802	5.3970152e-06
15	0x3596269e	1.118711e-06
16	0x371fede1	9.532524e-06
17	0x3730ef01	1.0546065e-05
18	0x35cb7515	1.5158754e-06
19	0x3684e72c	3.9608185e-06
20	0x36c84bfb	5.9693098e-06
21	0x35eb4689	1.7529393e-06
22	0x361a1750	2.2961358e-06
23	0x36d96a49	6.479477e-06
24	0x364f7ff3	3.091988e-06
25	0x36f59a3d	7.3195247e-06
26	0x36aa712e	5.0795707e-06
27	0x35e3ef1b	1.6982407e-06
28	0x3675128b	3.6518638e-06
29	0x36d63fc3	6.38512e-06
30	0x377dd36a	1.5129199e-05
31	0x36b5b882	5.4157e-06
32	0x3729ae97	1.0113835e-05
33	0x35d21956	1.5653593e-06
34	0x37368e70	1.0881209e-05
35	0x370fce2d	8.571468e-06
36	0x349f3569	2.965492e-07
37	0x355c3caf	8.204469e-07
38	0x35a0f3e9	1.1991916e-06
39	0x35c64c01	1.477427e-06
40	0x37fa0c11	2.9807941e-05
41	0x36ebd542	7.0283722e-06
42	0x37f1549a	2.8768834e-05
43	0x37912bb7	1.7305703e-05
44	0x360f4e3f	2.1354206e-06
45	0x354e4af1	7.6850034e-07
46	0x37939a0e	1.7595503e-05
47	0x37965234	1.7919672e-05
48	0x36fb4d00	7.489347e-06
49	0x362a2997	2.5356183e-06
50	0x358c8e5f	1.0472248e-06
51	0x35c79b77	1.4871902e-06
52	0x372bd438	1.0241805e-05
53	0x360e6545	2.1218596e-06
54	0x36010153	1.9223269e-06
55	0x35dc9a16	1.6436122e-06
56	0x36408e43	2.8693037e-06
57	0x363bf939	2.8010238e-06
58	0x3828922d	4.0190458e-05
59	0x370d3107	8.41567e-06
60	0x35b1ae5c	1.3238273e-06
61	0x3619eed0	2.2937784e-06
62	0x363cd3c6	2.8137451e-06
63	0x36879eb7	4.0417904e-06
64	0x378a1a1a	1.6463036e-05
65	0x36844241	3.9416195e-06
66	0x35a7c49c	1.249969e-06
67	0x35ab48b6	1.2761654e-06
68	0x3734f1af	1.0785107e-05
69	0x365ba776	3.2731018e-06
70	0x36027861	1.944158e-06
71	0x35a1d153	1.2056356e-06
72	0x37653d6f	1.3663767e-05
73	0x379db225	1.8798813e-05
74	0x3509a692	5.127887e-07
75	0x34e54d04	4.271061e-07
76	0x36943c02	4.4177295e-06
77	0x36c65c8e	5.9116346e-06
78	0x3635f7a8	2.7115257e-06
79	0x37099800	8.201227e-06
80	0x36be368a	5.6687904e-06
81	0x3695a3a6	4.459597e-06
82	0x374a330b	1.2052023e-05
83	0x36eca0c7	7.052065e-06
84	0x368f776b	4.275634e-06
85	0x36177754	2.2570212e-06
86	0x368d4ab9	4.2108263e-06
87	0x3645ad7f	2.9456276e-06
88	0x36880aa4	4.0543546e-06
89	0x36e5a4fc	6.8439385e-06
90	0x37656464	1.3672838e-05
91	0x36877976	4.0374534e-06
92	0x36cfe65c	6.195898e-06
93	0x3699631b	4.5712927e-06
94	0x370e0046	8.463923e-06
95	0x373b4a30	1.1163342e-05
96	0x361b6dcc	2.316071e-06
97	0x368050c5	3.8241e-06
98	0x370cd0da	8.393277e-06
99	0x373e2e99	1.1335732e-05
100	0x351e3fd0	5.8952446e-07
101	0x3536b07c	6.80571e-07
102	0x37252c93	9.845145e-06
103	0x375984c5	1.2965121e-05
104	0x363c5b98	2.8067498e-06
105	0x364e50d2	3.0743436e-06
106	0x36f93577	7.4270024e-06
107	0x371aaf31	9.219905e-06
108	0x31697677	3.3973302e-09
109	0x3260b4e4	1.3079646e-08
110	0x35cae842	1.5117769e-06
111	0x34cd8d39	3.8286979e-07
112	0x366403a8	3.3976776e-06
113	0x373a0128	1.1086733e-05
114	0x37d4f55a	2.538662e-05
115	0x36918c34	4.3376585e-06
116	0x34ccbf35	3.8137082e-07
117	0x360cec3d	2.0999134e-06
118	0x36c04e5e	5.731169e-06
119	0x36aaea62	5.0936806e-06
120	0x3739200c	1.1034321e-05
121	0x364028f7	2.8634074e-06
122	0x35f38f2b	1.8146578e-06
123	0x360960ce	2.0470939e-06
124	0x36e23a22	6.7420924e-06
125	0x37507466	1.2424867e-05
126	0x3788e3d2	1.631855e-05
127	0x364a7c52	3.017271e-06
128	0x37df2e69	2.6605283e-05
129	0x36b0a3df	5.264286e-06
130	0x36b1dccf	5.3007166e-06
131	0x3619a3f0	2.28942e-06
132	0x35df9599	1.6658333e-06
133	0x35e0ff66	1.6763631e-06
134	0x36260230	2.47372e-06
135	0x3617b7f6	2.2607833e-06
136	0x373a2bf7	1.10967e-05
137	0x3778fb9f	1.4840537e-05
138	0x360a21a6	2.0583188e-06
139	0x37163ba0	8.954579e-06
140	0x374cd0fc	1.22080055e-05
141	0x365b4bb4	3.2677608e-06
142	0x3584625f	9.863396e-07
143	0x35d906a9	1.6169698e-06
144	0x35e9ba85	1.7414137e-06
145	0x3615b1d3	2.2306237e-06
146	0x36abfec4	5.1258558e-06
147	0x36196feb	2.2863921e-06
148	0x3755391d	1.2709087e-05
149	0x36a7ee34	5.0047183e-06
150	0x3517d176	5.655669e-07
151	0x3611d9f5	2.1733551e-06
152	0x36021d9c	1.9388744e-06
153	0x36bb6c4d	5.585642e-06
154	0x3733d3ed	1.0718574e-05
155	0x375408ad	1.2638205e-05
156	0x3552b1b8	7.848971e-07
157	0x36439828	2.914583e-06
158	0x378b5d91	1.6613662e-05
159	0x36cf67e6	6.181176e-06
160	0x366052ea	3.3426863e-06
161	0x36fd46d1	7.5482317e-06
162	0x362ebec9	2.6039072e-06
163	0x375f4fe4	1.3310437e-05
164	0x377c48d2	1.5037325e-05
165	0x37245e92	9.797181e-06
166	0x37221396	9.660513e-06
167	0x36077ff2	2.0191042e-06
168	0x36890585	4.0835607e-06
169	0x36fc238a	7.5143225e-06
170	0x369f6a53	4.750947e-06
171	0x369d7edf	4.6937344e-06
172	0x36c01115	5.7240345e-06
173	0x361d85e8	2.3472767e-06
174	0x36477609	2.9722016e-06
175	0x3600d439	1.9197016e-06
176	0x357deeb6	9.4597215e-07
177	0x368a540a	4.122504e-06
178	0x36c2edfc	5.8093556e-06
179	0x363ddf95	2.8293337e-06
180	0x371367c9	8.786047e-06
181	0x36d6c3ba	6.4004826e-06
182	0x366b1396	3.502913e-06
183	0x3733cefc	1.0717424e-05
184	0x3765cf19	1.3697682e-05
185	0x3706d05f	8.035538e-06
186	0x35875528	1.0083068e-06
187	0x366835de	3.4602049e-06
188	0x35e2d438	1.6900076e-06
189	0x3580151f	9.54289e-07
190	0x38043b93	3.1526735e-05
191	0x36b482a0	5.379625e-06
192	0x373ddfb2	1.1317361e-05
193	0x370fb953	8.566613e-06
194	0x3781ea23	1.5487027e-05
195	0x366501c9	3.4124698e-06
196	0x38013b31	3.0811123e-05
197	0x36a85e3c	5.0177605e-06
198	0x373a019c	1.1086839e-05
199	0x3696d865	4.49554e-06

exp_avg f4 [100]
0	0x390cce3d	0.0001342827
1	0x3ae4c12e	0.0017452592
2	0x3aa1ee2f	0.001235431
3	0xb8857227	-6.363197e-05
4	0x39a1d66a	0.00030868064
5	0x3a5202d8	0.0008011288
6	0xba6a1f0b	-0.00089310174
7	0xb9835b27	-0.0002505418
8	0xb9ef3d6d	-0.00045631398
9	0x39a51beb	0.00031492053
10	0x3963e4ca	0.00021733638
11	0xb9a9d93e	-0.0003239605
12	0xb9e5646a	-0.00043753098
13	0x3915cf0f	0.00014286883
14	0xba061852	-0.00051153183
15	0x398ecbdb	0.00027236235
16	0xb89dedc4	-7.530631e-05
17	0xba2040e9	-0.0006113188
18	0x392c57e8	0.00016435946
19	0x389c4dc2	7.453143e-05
20	0xb9d8638a	-0.00041272893
21	0xba836e55	-0.0010027388
22	0xb8f17036	-0.000115126764
23	0xba528dd4	-0.00080319983
24	0xba03db10	-0.0005029896
25	0xb56467e0	-8.5087777e-07
26	0xb9bba84d	-0.00035792813
27	0x3a556390	0.0008140141
28	0x39a9b1c5	0.0003236664
29	0xb9b2f104	-0.00034130376
30	0x389aef5a	7.387875e-05
31	0x38be4a3a	9.073732e-05
32	0xb9ec64cc	-0.00045088527
33	0x38ed5ec1	0.0001131869
34	0xb9db8d1c	-0.0004187607
35	0xb74ce170	-1.2211836e-05
36	0x3a89932c	0.0010496131
37	0x3992b479	0.00027981753
38	0x39757d20	0.00023411633
39	0x3a36c360	0.0006971862
40	0x3a66879e	0.0008794012
41	0xba3bea9c	-0.00071684434
42	0x3a1ff732	0.00061022036
43	0xb948d214	-0.00019151747
44	0x3a16cdcd	0.00057527126
45	0xb9f4607c	-0.00046611193
46	0x3956e60e	0.00020494332
47	0xba2bf315	-0.00065593544
48	0x3a1688e1	0.00057424424
49	0xba6eb930	-0.00091065746
50	0x39b65d79	0.00034783388
51	0xba6d6bec	-0.0009056914
52	0x3a656209	0.0008750265
53	0x3a7e625b	0.0009703987
54	0x2e687a54	5.2859342e-11
55	0xb939fcbc	-0.00017737126
56	0x3a803cd0	0.0009783749
57	0xb92b29dc	-0.00016323425
58	0x39b7eebc	0.0003508235
59	0x3a0e776d	0.0005434666
60	0xb90505f7	-0.0001268609
61	0x39df6bd2	0.00042614207
62	0xba3dcb9e	-0.0007240119
63	0x3890416b	6.87864e-05
64	0xb8a958ba	-8.0750746e-05
65	0xb9a73502	-0.00031892216
66	0x39bbb265	0.00035800334
67	0x39856a34	0.00025446864
68	0xba413f34	-0.0007371784
69	0xb8edb630	-0.00011334976
70	0xb8838cd8	-6.272801e-05
71	0x3a31adfe	0.0006777941
72	0xb968411d	-0.00022149501
73	0xb8cea568	-9.853655e-05
74	0x3a4e45a3	0.0007868653
75	0x390e7aac	0.00013587874
76	0x3a12f9b1	0.0005606665
77	0x3a871113	0.0010304771
78	0x3a2553f6	0.00063067616
79	0xb9beb170	-0.00036371825
80	0x3a210e41	0.00061437866
81	0x3a1b6a09	0.0005928581
82	0x3ae3773a	0.0017354258
83	0x39347777	0.00017210642
84	0x39f28ed0	0.0004626424
85	0x37d1bfb2	2.5004007e-05
86	0xb9a3e4f5	-0.0003126037
87	0x3a6bc5d4	0.0008994017
88	0xb9ca96dd	-0.00038640844
89	0xba0adf0a	-0.00052975176
90	0xba2b62c8	-0.0006537852
91	0x3a5c6103	0.000840679
92	0x3aafcacb	0.0013411877
93	0xb99dfdbf	-0.0003013443
94	0x398efb8b	0.00027271765
95	0xb8dc7a88	-0.00010513241
96	0xba2546bb	-0.000630479
97	0xb9a93ef8	-0.00032281107
98	0xb8289ca4	-4.0200204e-05
99	0xba1b88bd	-0.00059331564

exp_avg_sq f4 [100]
0	0x367618b1	3.6671229e-06
1	0x3629e51f	2.5316328e-06
2	0x36213dc0	2.4026813e-06
3	0x36bdf8db	5.6616095e-06
4	0x35a72fd6	1.2456392e-06
5	0x35b44957	1.343239e-06
6	0x3689dc24	4.108546e-06
7	0x3589bada	1.0261676e-06
8	0x36037109	1.9586316e-06
9	0x356660f0	8.582274e-07
10	0x35ab87f9	1.2780066e-06
11	0x35865581	1.0008663e-06
12	0x3588d691	1.0195237e-06
13	0x35b5389f	1.350203e-06
14	0x35a38b6e	1.2185026e-06
15	0x369e09fe	4.70993e-06
16	0x3564b001	8.519274e-07
17	0x362580b6	2.4661836e-06
18	0x34e49ed1	4.2583864e-07
19	0x35885c62	1.0159677e-06
20	0x3683e0e0	3.930283e-06
21	0x36cc7b25	6.0940097e-06
22	0x345b4ded	2.0424314e-07
23	0x36956d2f	4.4532567e-06
24	0x3535960e	6.764611e-07
25	0x35525e0c	7.836795e-07
26	0x35cbe59d	1.5191505e-06
27	0x351c8026	5.830101e-07
28	0x35fa89e8	1.8666587e-06
29	0x36d11099	6.2306176e-06
30	0x35b9076e	1.3785736e-06
31	0x36085886	2.0317107e-06
32	0x35d77e23	1.6055459e-06
33	0x34af9e52	3.2711483e-07
34	0x35d32e90	1.5734277e-06
35	0x35011c8e	4.80978e-07
36	0x3618dbda	2.2777735e-06
37	0x33d8a3af	1.0088058e-07
38	0x366b4069	3.505522e-06
39	0x3598ff17	1.1399123e-06
40	0x3647bd75	2.976359e-06
41	0x3620aff8	2.3944285e-06
42	0x34b13d79	3.3013546e-07
43	0x364412e4	2.9217272e-06
44	0x35823593	9.701347e-07
45	0x360ed243	2.1282037e-06
46	0x3666b506	3.437804e-06
47	0x36120c58	2.176288e-06
48	0x35c367a5	1.4558797e-06
49	0x36126f37	2.182043e-06
50	0x349f3dae	2.9660936e-07
51	0x362f2008	2.6095677e-06
52	0x3530c1c0	6.584705e-07
53	0x361f5405	2.3741752e-06
54	0x30869eef	9.794955e-10
55	0x345f0f38	2.077403e-07
56	0x36379939	2.7358312e-06
57	0x36a0ee7e	4.7961357e-06
58	0x34ef1295	4.453074e-07
59	0x36012e21	1.9249348e-06
60	0x3602d90d	1.949785e-06
61	0x35d7daba	1.6082406e-06
62	0x3611863f	2.1684825e-06
63	0x363894c5	2.7504732e-06
64	0x367df8b9	3.7844713e-06
65	0x359fdae9	1.1910134e-06
66	0x34eb7bf2	4.3862343e-07
67	0x352f5a83	6.532429e-07
68	0x365f1ebf	3.3247486e-06
69	0x358a951c	1.0325198e-06
70	0x36793afc	3.7138225e-06
71	0x35fd0d98	1.8853925e-06
72	0x35cfee43	1.5492045e-06
73	0x359f5fb4	1.1874276e-06
74	0x369bc381	4.6421196e-06
75	0x35a90662	1.2593339e-06
76	0x3661f2d1	3.366895e-06
77	0x35da340e	1.6257416e-06
78	0x35f8f8df	1.8549871e-06
79	0x362bd5f3	2.560552e-06
80	0x35c8cf33	1.4961464e-06
81	0x36b1220b	5.278974e-06
82	0x36187446	2.2717445e-06
83	0x361d82c6	2.3470943e-06
84	0x35e76577	1.7240371e-06
85	0x36464006	2.9541566e-06
86	0x3587b5aa	1.0111155e-06
87	0x357bf6bf	9.386385e-07
88	0x36130354	2.1906644e-06
89	0x35a221dc	1.2079795e-06
90	0x3605ea02	1.9954755e-06
91	0x364f37bf	3.0877852e-06
92	0x35db2a16	1.632902e-06
93	0x34ecd3fb	4.4112662e-07
94	0x34b390c3	3.3446676e-07
95	0x3682ba34	3.895979e-06
96	0x362d2419	2.580002e-06
97	0x3613d83b	2.203057e-06
98	0x369dd03c	4.7032063e-06
99	0x360e8a3b	2.124011e-06

exp_avg f4 [16, 100]
0	0x3a0ef3bc	0.00054531894
1	0x392ce661	0.00016489021
2	0x3a7cbb24	0.0009640923
3	0x3a987850	0.0011632536
4	0x38faf9e0	0.00011967472
5	0x39fa22f2	0.00047709752
6	0x3a26b4f8	0.0006359364
7	0x38eadf66	0.00011199601
8	0x3acaf8f2	0.0015485568
9	0x3a7cc68e	0.0009642624
10	0x3a4499c4	0.00074997195
11	0x384d19a1	4.8899677e-05
12	0x3a445eba	0.0007490922
13	0x3a4b6105	0.00077582925
14	0x3a9b7101	0.0011859239
15	0x3a553059	0.00081325095
16	0x39978dda	0.00028906652
17	0x3ac27b5f	0.0014837793
18	0x399248f7	0.00027901653
19	0x3a8debc5	0.0010827711
20	0x3a10d8b4	0.00055254553
21	0x3aa34036	0.001245505
22	0x39416ab4	0.00018445664
23	0x3a7a6940	0.00095524266
24	0x39755602	0.00023397061
25	0x39ac2b3d	0.00032838612
26	0x3b0e59be	0.002172097
27	0x3952e178	0.00020111154
28	0x37d21b33	2.5046616e-05
29	0x39d57830	0.00040716073
30	0x39d22eac	0.00040089095
31	0x39f62169	0.0004694567
32	0x39726774	0.00023117458
33	0x3acf4de4	0.001581606
34	0x399a4f6f	0.00029432352
35	0x3a6e0d97	0.00090810045
36	0x3a0fe40d	0.00054889993
37	0x38102813	3.4369597e-05
38	0x3902ee4e	0.00012486542
39	0x3ac781a9	0.0015221137
40	0x38fa3c1e	0.00011932127
41	0x3af24509	0.0018483709
42	0x37377386	1.0934547e-05
43	0x3a5acf84	0.0008346962
44	0x3a648909	0.00087179296
45	0x3a3581aa	0.00069239235
46	0x3831283e	4.2237567e-05
47	0x3ab3a912	0.0013707003
48	0x39b851db	0.00035156202
49	0x3b0221b1	0.0019856507
50	0x396b0af6	0.0002241543
51	0x3a943c31	0.0011309442
52	0x38f167fe	0.000115111456
53	0x39b8a3f4	0.0003521737
54	0xadfc2e66	-2.8669688e-11
55	0x37c4ccec	2.3460445e-05
56	0x39df11a1	0.0004254701
57	0x3936ead1	0.00017444348
58	0x398c754d	0.00026790277
59	0x38a71b9c	7.968323e-05
60	0x3abe45c1	0.0014516638
61	0x36e1e526	6.732199e-06
62	0x3a95f9f6	0.0011442292
63	0x3a1fd305	0.0006096813
64	0x39ececaa	0.00045189756
65	0x3902790e	0.00012442862
66	0x3a2020aa	0.0006108383
67	0x38336403	4.277007e-05
68	0x3a2c0a09	0.00065627747
69	0x3a8af45a	0.0010601387
70	0x386a3f7f	5.5849083e-05
71	0x39bcea15	0.0003603256
72	0x3a20bff2	0.00061321177
73	0x3a3ad6f3	0.0007127367
74	0x389890e7	7.274915e-05
75	0x3990d171	0.00027621866
76	0x39b41caa	0.00034353632
77	0x39eb0544	0.00044826616
78	0x39e65a5b	0.0004393634
79	0x3a7d2797	0.00096570834
80	0x39d1e966	0.00040037482
81	0x39de2617	0.0004237152
82	0x38be5e2f	9.077449e-05
83	0x39b5915b	0.00034631309
84	0x3aa3e1db	0.0012503223
85	0x38b218f2	8.492348e-05
86	0x3949df9d	0.00019252156
87	0x388d682b	6.742807e-05
88	0x37793e75	1.48560985e-05
89	0x3a0bdd95	0.00053354475
90	0x399374c5	0.00028125025
91	0x3a6e8f82	0.0009100364
92	0x384ad358	4.8357382e-05
93	0x3923e499	0.0001563005
94	0x3a9d2568	0.0011989297
95	0x39a4fc4a	0.00031468488
96	0x3b045982	0.0020194952
97	0x399b5bd5	0.00029632324
98	0x396dfe4d	0.00022696816
99	0x3ac9128e	0.0015340613
100	0xba53e41c	-0.0008083002
101	0xb9c96180	-0.0003841035
102	0xba9c80de	-0.0011940261
103	0xbadbcccc	-0.0016769408
104	0xb89c0b38	-7.440749e-05
105	0xba16a00a	-0.00057458936
106	0xba8c8b16	-0.0010722603
107	0xb97e7f7c	-0.00024270819
108	0xbad90253	-0.0016556479
109	0xba3823af	-0.000702436
110	0xba0cc8fe	-0.00053705263
111	0xb8740e30	-5.8187346e-05
112	0xbaa5eebc	-0.0012659649
113	0xba92edb0	-0.0011209752
114	0xbac5328c	-0.0015044971
115	0xbaa7686c	-0.0012772209
116	0xba30369e	-0.0006722006
117	0xbaf6a05e	-0.0018816104
118	0xba2c9279	-0.00065831054
119	0xbac80712	-0.0015260896
120	0xba934be5	-0.0011237828
121	0xbacefce4	-0.001579192
122	0xb96b5f78	-0.00022446911
123	0xbaa48b56	-0.0012553732
124	0xba068d86	-0.0005132783
125	0xba3dce50	-0.0007240521
126	0xbaf30738	-0.001854158
127	0xba67a5a0	-0.0008836631
128	0xb9010a82	-0.00012306313
129	0xba679014	-0.000883342
130	0xba7e93ec	-0.0009711373
131	0xba9e062b	-0.0012056282
132	0xba02dc5a	-0.00049919414
133	0xbac9553d	-0.0015360486
134	0xb9daea48	-0.00041754753
135	0xba2c4e66	-0.00065729616
136	0xba254801	-0.000630498
137	0xb981c54c	-0.00024751795
138	0xb9c55549	-0.0003763831
139	0xba8b6282	-0.0010634216
140	0x38f244b1	0.00011552254
141	0xbadb9c96	-0.001675504
142	0xb8b0b936	-8.426832e-05
143	0xbaa44a25	-0.0012534304
144	0xba692859	-0.0008894257
145	0xba845f85	-0.0010099268
146	0x389e2e8e	7.5426986e-05
147	0xbaf4d0ab	-0.001867791
148	0xba6c582c	-0.0009015824
149	0xbb1d38f3	-0.0023990243
150	0xb8f2dd9a	-0.00011580736
151	0xbacd6d92	-0.0015672913
152	0xb9cfafda	-0.00039613136
153	0xba90280e	-0.0010998265
154	0x2e9c3950	7.1042394e-11
155	0xb902c395	-0.00012470626
156	0xba87b1fc	-0.0010352726
157	0xb9d9fa6a	-0.00041576038
158	0xb94e4a4e	-0.00019673372
159	0x3907eee6	0.000129636
160	0xbab7c47b	-0.0014020348
161	0xb6ff095e	-7.6006827e-06
162	0xbab6e8de	-0.0013954898
163	0xba7ef136	-0.0009725274
164	0xba84ffd9	-0.0010147049
165	0xb99589b0	-0.0002852208
166	0xba295656	-0.00064597034
167	0x385cba35	5.2625506e-05
168	0xba87f028	-0.0010371255
169	0xbac81e91	-0.0015267899
170	0xb945ecda	-0.00018875618
171	0xba9ac76a	-0.0011808698
172	0xba7b362c	-0.00095829624
173	0xba73b352	-0.0009296435
174	0xb97c28c2	-0.00024047776
175	0xba34865e	-0.00068864773
176	0xba95380a	-0.0011384499
177	0xba0d974f	-0.000540127
178	0xba96460c	-0.0011464967
179	0xbab70322	-0.0013962726
180	0xb99d8ec0	-0.0003005173
181	0xbaa3b032	-0.0012488423
182	0xb9a43c0b	-0.00031325253
183	0xba3699e6	-0.00069656817
184	0xba76760a	-0.00094017445
185	0xb9bdb083	-0.000361804
186	0xba205a96	-0.0006117014
187	0xb99b2b4f	-0.0002959617
188	0xb7b07a70	-2.103785e-05
189	0xba9bb6e1	-0.0011880064
190	0xb9d0e398	-0.00039842422
191	0xbacd6412	-0.0015670082
192	0xb93f832d	-0.00018264046
193	0xb9a16c9a	-0.00030789227
194	0xba8878b8	-0.0010411954
195	0xba3ad584	-0.0007127153
196	0xbb1d356e	-0.0023988145
197	0xba2ada08	-0.00065174745
198	0xb9fdd731	-0.0004841625
199	0xbac66e76	-0.0015139121
200	0xb97d0500	-0.00024129823
201	0xb7ad46ca	-2.065617e-05
202	0xb8be7168	-9.0810296e-05
203	0xb873539a	-5.8013575e-05
204	0xba16e054	-0.00057554734
205	0xb729d300	-1.0122312e-05
206	0x3a0677c8	0.0005129543
207	0xb9f6d92e	-0.00047082588
208	0x39c463b0	0.00037458306
209	0xb8e305e8	-0.000108253036
210	0xb867a510	-5.522842e-05
211	0x36281270	2.5044683e-06
212	0x3a1dcf19	0.00060199347
213	0xb887be8e	-6.472795e-05
214	0x3a04b757	0.000506272
215	0x382b6497	4.086326e-05
216	0xba2e95f2	-0.0006659917
217	0x3a358570	0.0006924486
218	0xb9a8a637	-0.00032167297
219	0xb7c706c8	-2.3725806e-05
220	0xba4f078a	-0.0007897547
221	0x3a15676c	0.000569931
222	0xb9c03d04	-0.00036666554
223	0x39facaee	0.0004783491
224	0xba3f45ec	-0.0007296491
225	0xb9cdee9f	-0.00039278434
226	0x394cc950	0.00019529951
227	0x38d7407c	0.0001026401
228	0xb9a9e364	-0.0003240361
229	0xba3c6d3b	-0.00071879075
230	0xb9eeb4f8	-0.0004552973
231	0xb9fb7172	-0.00047958974
232	0xba2e6c86	-0.00066537445
233	0x3990ff43	0.00027656005
234	0xb820c215	-3.8327726e-05
235	0x376812c0	1.3832643e-05
236	0xb81133bc	-3.4618875e-05
237	0x3887e45b	6.479836e-05
238	0xb8f40bca	-0.000116370225
239	0xb9ce8f4d	-0.0003939815
240	0xba4a8650	-0.00077257026
241	0x3960c52c	0.00021435757
242	0x3798136e	1.812886e-05
243	0x38f1d828	0.00011532038
244	0xb9a1412a	-0.00030756864
245	0xb95912ff	-0.00020701809
246	0xba1c47f9	-0.00059616525
247	0x3a408d60	0.0007345285
248	0xb99ece3b	-0.00030289762
249	0x3a48ac11	0.00076550344
250	0xba232b6b	-0.00062244263
251	0x3a1b8872	0.00059331127
252	0x383c43ed	4.4885954e-05
253	0x38bda3aa	9.042707e-05
254	0x2e6de425	5.4090194e-11
255	0x389eb4cd	7.567704e-05

exp_avg_sq f4 [16, 100]
0	0x35fc4778	1.8796263e-06
1	0x368a9356	4.1298727e-06
2	0x38013ad3	3.081078e-05
3	0x3706b8b5	8.030028e-06
4	0x357cff8c	9.4249185e-07
5	0x369ecf49	4.732898e-06
6	0x36dbe8bc	6.5538025e-06
7	0x3530a05b	6.579846e-07
8	0x37fc5c9f	3.0083871e-05
9	0x37b25dae	2.1262877e-05
10	0x37171eab	9.007442e-06
11	0x346efc51	2.225727e-07
12	0x3723a45d	9.753826e-06
13	0x36a40d40	4.8891234e-06
14	0x37b1cee1	2.119638e-05
15	0x36be4186	5.670069e-06
16	0x36e6a48a	6.873689e-06
17	0x3800e1d1	3.0727886e-05
18	0x3687187c	4.026164e-06
19	0x37852bf8	1.587531e-05
20	0x369b7c2c	4.6338155e-06
21	0x37b7a0b9	2.1890142e-05
22	0x361922ed	2.2819106e-06
23	0x37607851	1.3379454e-05
24	0x36fe801a	7.584703e-06
25	0x368662d7	4.0050177e-06
26	0x386fc756	5.7167686e-05
27	0x36a09930	4.786205e-06
28	0x3568b70b	8.66931e-07
29	0x3688d2a6	4.0776386e-06
30	0x36e3a384	6.784163e-06
31	0x3745f5e2	1.1799364e-05
32	0x35f67d1a	1.8364838e-06
33	0x380f0b34	3.410429e-05
34	0x359747ae	1.1271238e-06
35	0x3778386b	1.4795088e-05
36	0x36ee1622	7.0955293e-06
37	0x363723f4	2.7290052e-06
38	0x357870d4	9.2551386e-07
39	0x382034fe	3.8196325e-05
40	0x351b8b57	5.7944766e-07
41	0x382a4d17	4.0602954e-05
42	0x30f6d7ce	1.7960191e-09
43	0x36c31469	5.813829e-06
44	0x37d28b03	2.5098683e-05
45	0x36959f8e	4.4591206e-06
46	0x34e8ce7a	4.33636e-07
47	0x37e3d996	2.716183e-05
48	0x36e6e64f	6.8813456e-06
49	0x384ed213	4.9309874e-05
50	0x368d1b88	4.2053325e-06
51	0x37949389	1.7711676e-05
52	0x355079f9	7.766353e-07
53	0x37587a60	1.2903096e-05
54	0x2f7c3a1d	2.2939912e-10
55	0x33d981d4	1.01284655e-07
56	0x375d2256	1.3180621e-05
57	0x35aff56c	1.3109943e-06
58	0x35051c07	4.9587146e-07
59	0x3400838b	1.1968784e-07
60	0x37f5c3ee	2.9297513e-05
61	0x34528ac8	1.9608262e-07
62	0x37959d00	1.7835293e-05
63	0x36def8ae	6.6450657e-06
64	0x37013ab9	7.702672e-06
65	0x364b9d1f	3.0340814e-06
66	0x36bc18d2	5.605726e-06
67	0x3467b9a7	2.1581091e-07
68	0x36ee23cf	7.0971214e-06
69	0x37a534d1	1.9694127e-05
70	0x34584cdb	2.0144527e-07
71	0x3740f112	1.150022e-05
72	0x3673a9f6	3.6308752e-06
73	0x36c6e9b6	5.9280674e-06
74	0x34b4ea30	3.3698007e-07
75	0x36540043	3.1590614e-06
76	0x3785cee4	1.5951176e-05
77	0x36cdaa2f	6.129288e-06
78	0x37875787	1.6134012e-05
79	0x371ae0bb	9.231439e-06
80	0x368709df	4.0244627e-06
81	0x37b1a08c	2.1174805e-05
82	0x362efa09	2.607356e-06
83	0x36001795	1.9087213e-06
84	0x38120dda	3.4822013e-05
85	0x35a01c57	1.1929177e-06
86	0x36117cbd	2.167929e-06
87	0x33bbfdd9	8.754041e-08
88	0x342664e2	1.5496656e-07
89	0x376c8e67	1.4099852e-05
90	0x35f7cc95	1.8462475e-06
91	0x37f3ab85	2.9047727e-05
92	0x34a8d83f	3.1449778e-07
93	0x35e05ce7	1.6716339e-06
94	0x37b22703	2.123742e-05
95	0x3695bae5	4.4623034e-06
96	0x385cb7de	5.2623327e-05
97	0x3609907f	2.0498699e-06
98	0x35a1ed7f	1.2064555e-06
99	0x3809fec8	3.290063e-05
100	0x365220de	3.131157e-06
101	0x36697f42	3.479378e-06
102	0x3796b2a8	1.7964587e-05
103	0x3842b941	4.6425735e-05
104	0x36c6ce74	5.924894e-06
105	0x3649f43a	3.0093493e-06
106	0x373976b2	1.1054495e-05
107	0x3691168f	4.323963e-06
108	0x381ca483	3.734651e-05
109	0x3766e1ea	1.3761668e-05
110	0x36f0085e	7.1535314e-06
111	0x34b78d5d	3.4189262e-07
112	0x37a228f7	1.933098e-05
113	0x37a47e24	1.9609062e-05
114	0x38007f00	3.0635856e-05
115	0x3811478d	3.463733e-05
116	0x36c29272	5.798699e-06
117	0x38271546	3.9835715e-05
118	0x36b5f07b	5.422216e-06
119	0x383fe7ca	4.575382e-05
120	0x3799d81f	1.833966e-05
121	0x37e303f8	2.7062357e-05
122	0x3665307a	3.4151876e-06
123	0x37959519	1.7831613e-05
124	0x36e1bf06	6.7277606e-06
125	0x36f47de5	7.2864227e-06
126	0x3868be88	5.5490556e-05
127	0x36e5c650	6.8478184e-06
128	0x373bc90d	1.1192879e-05
129	0x372fb8cd	1.047384e-05
130	0x37329aaa	1.0645637e-05
131	0x3785bb03	1.594192e-05
132	0x36b3e3a6	5.3611175e-06
133	0x38247943	3.921358e-05
134	0x35f41d67	1.8187974e-06
135	0x37362528	1.08566965e-05
136	0x3693f979	4.409984e-06
137	0x36486a0a	2.9864045e-06
138	0x370c21ec	8.352548e-06
139	0x37c7d5f7	2.3822284e-05
140	0x36ac0e1f	5.1276434e-06
141	0x38360e57	4.3405536e-05
142	0x33451201	4.588401e-08
143	0x37c3a8c7	2.3324405e-05
144	0x377c1143	1.50243895e-05
145	0x375b201e	1.3060895e-05
146	0x36f90054	7.4208165e-06
147	0x3823bdde	3.9039056e-05
148	0x3738ae79	1.1007877e-05
149	0x3889d437	6.572197e-05
150	0x36a196fb	4.8157503e-06
151	0x37e403d1	2.7181495e-05
152	0x36148ba8	2.213501e-06
153	0x36d79a8a	6.42549e-06
154	0x30ef6c5e	1.7420339e-09
155	0x351ecfe2	5.9162096e-07
156	0x36892806	4.0875775e-06
157	0x36a59cec	4.9356513e-06
158	0x34bb68d6	3.4907742e-07
159	0x362785f8	2.496292e-06
160	0x37edb575	2.83371e-05
161	0x35ff6252	1.9027595e-06
162	0x37ce207e	2.4572244e-05
163	0x36f3f5fc	7.2706007e-06
164	0x37203a05	9.550252e-06
165	0x36958ee6	4.4571816e-06
166	0x36bc006a	5.602885e-06
167	0x351ac668	5.765819e-07
168	0x373d36f6	1.1278074e-05
169	0x380e4506	3.391972e-05
170	0x35e781c0	1.7248603e-06
171	0x370bba9b	8.328493e-06
172	0x377c15b2	1.5025422e-05
173	0x36f29ec3	7.2306443e-06
174	0x367357f0	3.6261008e-06
175	0x36a09d5d	4.786691e-06
176	0x3703318b	7.819744e-06
177	0x36781c12	3.6971219e-06
178	0x37643628	1.3602468e-05
179	0x3785ae4c	1.5935999e-05
180	0x362e209a	2.5946997e-06
181	0x3720f1e9	9.593067e-06
182	0x361f2a66	2.3717525e-06
183	0x378567e1	1.5903208e-05
184	0x37c2a146	2.3201701e-05
185	0x3739f96a	1.10849305e-05
186	0x36b6a1be	5.442852e-06
187	0x34ce9102	3.8475997e-07
188	0x358648ed	1.0005002e-06
189	0x37826dd0	1.5548343e-05
190	0x362e1a57	2.5943352e-06
191	0x3727f9ab	1.0012106e-05
192	0x34fdc4c8	4.72681e-07
193	0x36788544	3.703245e-06
194	0x37ae4255	2.0773305e-05
195	0x36a3c3b1	4.88056e-06
196	0x38869d54	6.4189226e-05
197	0x36b10ffb	5.2768714e-06
198	0x36101d62	2.1474775e-06
199	0x380b7b33	3.325492e-05
200	0x3662eaad	3.3813224e-06
201	0x361ead52	2.364472e-06
202	0x37894e9c	1.6368278e-05
203	0x3833dda9	4.2883363e-05
204	0x36f1a6d3	7.2017806e-06
205	0x36401345	2.8621446e-06
206	0x3693af8e	4.4013786e-06
207	0x36b6822c	5.4391767e-06
208	0x372ec5fe	1.0417307e-05
209	0x3724484b	9.791994e-06
210	0x362fb8a4	2.6184507e-06
211	0x34adb919	3.2358437e-07
212	0x3719d63e	9.169393e-06
213	0x3792af04	1.7486054e-05
214	0x374b300a	1.2110928e-05
215	0x37f1aa82	2.8808838e-05
216	0x36a1cf1a	4.8222837e-06
217	0x375c8fb4	1.314648e-05
218	0x35e11e8c	1.6772697e-06
219	0x380a54bd	3.2980683e-05
220	0x37c11d21	2.3020957e-05
221	0x370dd0c6	8.452864e-06
222	0x3533f54d	6.7039656e-07
223	0x36b23864	5.311378e-06
224	0x36dd5183	6.5958025e-06
225	0x35afcde2	1.3098436e-06
226	0x378d22fa	1.6824797e-05
227	0x3573c357	9.080881e-07
228	0x3736d809	1.0898345e-05
229	0x3761faf2	1.3469473e-05
230	0x364e3900	3.072957e-06
231	0x369617a2	4.4730996e-06
232	0x36ec8b4c	7.0495644e-06
233	0x372b5901	1.0213117e-05
234	0x35823244	9.700384e-07
235	0x369b73e4	4.6328514e-06
236	0x367ef5ae	3.7991954e-06
237	0x3487c912	2.5292007e-07
238	0x36c90db4	5.991862e-06
239	0x375e451c	1.3248322e-05
240	0x36c2137d	5.7839193e-06
241	0x37524c74	1.2534776e-05
242	0x30c245ef	1.4135234e-09
243	0x378e1b01	1.6940294e-05
244	0x37610477	1.3412085e-05
245	0x3744adfa	1.1723017e-05
246	0x36db51ac	6.5362165e-06
247	0x3760ced4	1.3399596e-05
248	0x35f17b1f	1.7991732e-06
249	0x37acc7f9	2.0597117e-05
250	0x36009a25	1.916321e-06
251	0x374d3436	1.22311085e-05
252	0x34277dac	1.5598806e-07
253	0x36bff97a	5.7212865e-06
254	0x307c8ad3	9.1874347e-10
255	0x3417b4aa	1.4128696e-07

exp_avg f4 [16]
0	0x3a96ace3	0.0011495616
1	0xbac415d4	-0.0014960119
2	0xb94b4dae	-0.00019388527
3	0x30db23f7	1.5944569e-09
4	0xba4ca024	-0.0007805845
5	0x3a07383d	0.00051582215
6	0x3a3874bb	0.0007036437
7	0xba9156d5	-0.00110885
8	0x00000000	0.0
9	0x3aace95e	0.0013192107
10	0x30168b6a	5.47678e-10
11	0x39ba62d1	0.00035550309
12	0xba8ea8ea	-0.001088408
13	0x311cb9d6	2.2806623e-09
14	0xba43ed4b	-0.0007474019
15	0xba3b433a	-0.00071435014

exp_avg_sq f4 [16]
0	0x3789fb20	1.6448612e-05
1	0x376cac3c	1.4106798e-05
2	0x370062d9	7.652409e-06
3	0x35f2e823	1.8097966e-06
4	0x36ad24d8	5.160091e-06
5	0x37e5c61b	2.7391177e-05
6	0x37464926	1.1818751e-05
7	0x36e2d1f9	6.759769e-06
8	0x00000000	0.0
9	0x3692ca4c	4.3746895e-06
10	0x348a266a	2.5732453e-07
11	0x37610408	1.3411984e-05
12	0x37382ad1	1.0977224e-05
13	0x3619f1bb	2.2939482e-06
14	0x364452f5	2.9254563e-06
15	0x36c5b257	5.891819e-06
