hw2/best_digits.ckpt (torch, 237426 bytes, 12 tensors)

model.0.weight f4 [256, 64]
000000 40 e5 ea 3c f2 7c 13 bc 4b 2f ce 3c 7e 35 9f bb
       0.028673768 -0.009001957 0.025169035 -0.0048586717
000010 b7 29 6e 3d af bd 25 3d 6a b3 0f 3b 59 ed 38 bd
       0.05814525 0.0404641 0.0021927007 -0.045148227
000020 8c 65 37 39 2d 51 da bd 7a 75 84 3c e7 ea bd 3c
       0.00017490069 -0.10660014 0.016169298 0.0231833
000030 97 56 38 bc 7c f9 bb 3d 2f d6 eb 3c f4 05 e4 3d
       -0.011251113 0.09178445 0.028788654 0.11133948
000040 1a 89 24 3d 7f d8 ad bd cc f6 90 bd c8 26 ee 3d
       0.040169813 -0.08488559 -0.07078323 0.11628491
000050 49 22 d6 bd 96 85 46 bd a2 09 c7 bc 4c f2 01 3e
       -0.10455758 -0.04846724 -0.024296585 0.12690085
000060 d0 b3 42 bc 02 54 c1 3c 86 36 10 bd 93 ac 9f bd
       -0.011883691 0.023599628 -0.035208248 -0.07796588
000070 60 75 6d bd 98 2c b1 bd e5 f8 11 be 4c c0 5a bd
       -0.057973266 -0.08651084 -0.14255102 -0.053406045
000080 50 ff f0 3c b0 74 15 3e 5b 7d 96 3c f5 01 5f bd
       0.029418617 0.14595294 0.018370321 -0.054445226
000090 eb f7 94 3d df 2c 27 bd 9d d7 d9 bc 50 57 8c bd
       0.07273849 -0.040814277 -0.02659207 -0.06852591
0000a0 d7 88 83 bd c9 98 bf bd 71 f1 a2 3d 20 a1 99 3d
       -0.064225845 -0.09355313 0.079562075 0.07501435
0000b0 fc 5e 0b 3d e9 fc a2 3d 25 ce b6 3d 4f 57 af 3c
       0.03402613 0.07958395 0.08926038 0.021403937
0000c0 25 48 bd 3c be 89 cc 3b 90 23 a7 3d 30 e6 e0 3d
       0.02310569 0.006242006 0.0816108 0.10981405
0000d0 0f 92 db 3d 3a f7 c4 3d 6e 5d 3a 3a c8 ce 00 bd
       0.10721218 0.09617467 0.0007109259 -0.031447202
0000e0 9d 47 51 bc 2b d1 dd 3d c5 c5 bc 3c 54 31 f0 3d
       -0.012773422 0.10830911 0.023043523 0.117281586
0000f0 8b 7d 92 3d 7f 2c ad bd 9d ef 91 3d 82 74 12 3e
       0.07152852 -0.084557526 0.07125781 0.14302257
000100 f4 63 e3 3d b1 92 3f 3d 39 96 6d 3d 0f 34 da bd
       0.11103049 0.046770755 0.05800459 -0.10654461
000110 93 25 7c bc 8f d7 8a 3d 70 b3 e0 bd 17 b1 e3 3d
       -0.015389818 0.06779396 -0.10971725 0.111177616
000120 aa 81 e4 bd 97 2b 9c 3d 7d 42 23 3d f1 8f 5a 3d
       -0.11157544 0.076255016 0.03985833 0.05335993
000130 28 8e 62 3c 17 39 08 be 15 35 05 3d ce cc 93 bd
       0.013827838 -0.13303028 0.032521326 -0.07216798
000140 fb 59 a1 3d c4 3b 2c bc 05 2f f4 bd 70 9c b6 3b
       0.078784905 -0.010512296 -0.11923031 0.005572848
000150 1a e9 91 3d c9 b8 fc bd a7 aa 1a bc 4d bb 9c 3c
       0.07124539 -0.123399325 -0.009440101 0.01913228
000160 f0 48 9f bd 70 c9 86 bd 20 0a 44 bd 44 40 95 bd
       -0.077775836 -0.0658139 -0.04786122 -0.07287648
000170 af 1d 09 3e 0f f9 78 3c c0 92 a0 bb 12 0d 89 3d
       0.1339023 0.015196099 -0.0049003065 0.06691946
000180 14 4a c5 bd dd 20 73 bd 1a 78 a8 bd 2d 8d 99 bb
       -0.0963327 -0.059357513 -0.082260326 -0.004686019
000190 1b b8 e5 bc f4 71 c2 bb 50 e1 bd bd 48 37 58 3d
       -0.02804189 -0.0059339944 -0.092714906 0.052787095
0001a0 f8 18 e8 3c 95 c7 68 3d 27 82 d4 3d 9f 73 f5 3d
       0.028332219 0.05683096 0.10376387 0.119849436
0001b0 97 30 25 be 70 83 6f 3d 18 dd 35 3e 6b 52 7b bd
       -0.16131817 0.058474958 0.17760122 -0.061357897
0001c0 05 ed 2a bd b3 57 e0 3b e1 c5 3c bd 04 1b 2a ba
       -0.041729946 0.006846392 -0.04608715 -0.0006489011
0001d0 a6 f3 05 bc ed 06 2e 3e b7 fb 38 3d 96 f8 32 bc
       -0.008175766 0.1699483 0.04516193 -0.010923525
0001e0 f4 e9 db 3d 7b 61 dd 3d 99 0c a5 bd 5d b8 ee 3d
       0.107379824 0.108096085 -0.080590434 0.11656258
0001f0 c3 c6 d6 3d 05 59 5c bd 5c e1 00 bd 54 fc 3d 3d
       0.104871295 -0.053795833 -0.03146492 0.046383217
000200 e0 db f8 bd 2b 51 bd bd 61 78 b9 bd c6 1a 34 3d
       -0.12151313 -0.09243997 -0.090561636 0.043970846
000210 77 12 36 bd c3 6c 29 be 68 50 0a bc 36 8f 26 3d
       -0.044451203 -0.16545396 -0.008442022 0.04066392
000220 40 80 c5 3c 40 57 a9 bd 04 85 0f 3e fc 2c 58 bb
       0.024109006 -0.08268595 0.14015585 -0.0032985797
000230 d4 d9 ee bd 10 6b 87 bd aa 13 92 3d 34 62 6e 3d
       -0.11662641 -0.066122174 0.07132657 0.058199123
000240 ba 5c 24 bc 98 d5 8f 3d 2b a3 a1 bd d8 ac 6b 3d
       -0.010031873 0.07023162 -0.0789245 0.057537884
000250 39 b8 f2 3d cf c0 8c bd 7a 79 7f 3d fd ce ba 3b
       0.11851544 -0.06872713 0.06237171 0.0057009445
000260 d4 1c d8 bd e9 91 21 3c 0a 22 05 bd b3 b5 06 be
       -0.105523735 0.009861448 -0.032503165 -0.1315525
000270 ae b5 ae bd 68 24 29 3d 78 98 2f 3e 87 9e 84 3d
       -0.085307464 0.041294485 0.17148006 0.06475549
000280 84 53 aa bd 0a 20 cd 3d 41 30 06 3d 09 96 d5 bd
       -0.083167106 0.100158766 0.032760862 -0.104290076
000290 9c ec c5 3c 97 2e e6 3d f2 41 9b bd a0 76 bc bb
       0.024160676 0.11239355 -0.075809374 -0.005751446
0002a0 cd a6 58 bd f8 d6 5d bd ad 31 37 bd 62 d6 1c 3d
       -0.05289345 -0.05416009 -0.04472511 0.03829039
0002b0 da ee c4 3d df 0b 7b bc 48 f2 fb bd 3a 47 b4 3c
       0.0961587 -0.0153226545 -0.12302071 0.02200662
0002c0 ac 18 ca bd 06 3e 8a 3d 80 3b a1 3d 40 9e 85 3d
       -0.09867987 0.06750111 0.07872677 0.065243244
0002d0 00 cc 96 bd 17 80 1b bc c7 a3 4b 3d 0f e7 18 3a
       -0.07363129 -0.009490988 0.049716737 0.000583277
0002e0 a4 77 f0 bd ee b1 33 bd 43 d0 4e bd 6f ba 51 3d
       -0.1174157 -0.04387086 -0.050491583 0.051203188
0002f0 a8 0d e8 3d 6c 47 82 3d cb a8 44 3d 5f 0a ea bd
       0.1133073 0.06361279 0.048012536 -0.114277594
000300 40 a6 a5 3d 83 44 0f 3d 49 e6 fb bb cd 0c 22 bd
       0.0808835 0.034977447 -0.0076873642 -0.03956299
000310 bb 06 df 3c 5d 98 3c bd d1 52 10 3d 16 a5 8e 3d
       0.027224889 -0.046043742 0.03523523 0.069650814
000320 8d 18 b7 bc 13 27 e6 bd a9 7b 23 bd ec 50 a6 bd
       -0.022350574 -0.112379216 -0.039912853 -0.081209034
000330 e0 8f 05 bd 03 7c db 3d 53 55 31 3d 0e 25 4e bd
       -0.032607913 0.10717013 0.043294262 -0.050328307
000340 b8 15 19 3d 32 ef 34 bd 89 47 74 bd 44 38 ee 3c
       0.03737423 -0.044173427 -0.059638534 0.029079564
000350 6e bc 32 3d 0e 15 84 bd c8 6c e0 bd 2e c5 0f 3d
       0.04363673 -0.06449328 -0.109582484 0.035100155
000360 28 d6 96 3c b1 27 98 3c fe ca da 3d 6f 49 43 3e
       0.018412665 0.018573614 0.10683249 0.19070981
000370 c6 97 3b 3d e2 bb b2 bd 45 af ad 3d 8a 97 f7 3d
       0.04579904 -0.08727242 0.08480696 0.12089451
000380 60 78 43 bc bb 52 81 bd d5 b9 40 bb 78 35 15 3e
       -0.011930555 -0.06314608 -0.002940764 0.14571178
000390 d4 d8 dc 3d 9d 34 91 bd de f7 63 bd 50 09 d2 3c
       0.10783544 -0.07090113 -0.055656306 0.025639206
0003a0 47 fc 5e 3d 6f 19 08 3d cd 5c 86 bd d6 63 ed 3c
       0.05443981 0.03322738 -0.06560669 0.02897827
0003b0 4d 31 2d 3d da cf c9 bc 81 0b a3 bd 72 59 eb bd
       0.042283345 -0.024635244 -0.079611786 -0.1149167
0003c0 7b 3e ae bd 7f d6 7e 3d c0 bd 97 bd 26 9b d2 bd
       -0.08508011 0.06221628 -0.07409239 -0.102834985
0003d0 c9 e1 08 3e fe cc 92 3d 7a 4d 71 3d 82 e1 90 3d
       0.1336738 0.071680054 0.058911778 0.07074262
0003e0 76 cc 97 bd 68 74 8c bd de 25 4a bd 66 47 95 3c
       -0.07412045 -0.0685814 -0.04935252 0.018222522
0003f0 cf d7 83 3d 56 b6 bd bd eb c9 9f bd 75 a2 ca 3d
       0.064376466 -0.092632934 -0.07802185 0.098942675

model.0.bias f4 [256]
000000 25 4e ab 3d 75 d6 e6 3d fa 78 62 3d 0b 44 97 bc
       0.08364514 0.11271373 0.055291153 -0.018465063
000010 b6 ee f1 bc 16 21 84 bd 23 e0 b6 3d cd ac 48 bd
       -0.029532772 -0.06451623 0.089294694 -0.04899292
000020 42 dd fe 3d c0 cb 6c 3c a3 76 b2 3d 9d cc 19 3d
       0.12444545 0.014452875 0.087140344 0.03754865
000030 e5 d6 e5 3c 13 83 96 3d 85 8a 84 bc 28 75 0b 3e
       0.028056571 0.07349219 -0.016179333 0.1361891
000040 f6 5c b8 3d e6 62 cd 3d bf 1c c9 bd 9f c2 15 3d
       0.09002106 0.10028629 -0.09819936 0.03656256
000050 a8 24 87 3d e2 01 8f bd 91 04 a0 3d 10 4d 12 bd
       0.065987885 -0.06982781 0.07813371 -0.035718024
000060 86 3a 7f 3d 9d 31 8e bc d6 3b 0b 3e a8 f8 e1 3c
       0.06231167 -0.017357642 0.13597044 0.027584389
000070 8d f6 be bd 7f 64 ad 3c cc b2 ea 3d d0 e0 f9 bd
       -0.093243696 0.021166084 0.11459884 -0.12201083
000080 b3 3b 02 3d 4d 09 5f bd f8 b6 c5 bd 1c 77 a9 3d
       0.031795215 -0.05445223 -0.09654039 0.082746714
000090 35 8e d6 3d 64 c3 89 3d 78 8f 54 bd 62 ad 01 3c
       0.104763426 0.06726721 -0.051894635 0.007914873
0000a0 fe 74 cb 3d f8 9b d1 bd d5 2f 70 3d 0b b8 93 bd
       0.09934424 -0.10234827 0.058639366 -0.07212838
0000b0 cb f4 db bd 60 80 91 3d fc 0f 99 bd 33 34 f1 3d
       -0.1074005 0.07104564 -0.07473752 0.11777534
0000c0 a5 be fc 3d 28 11 13 3d 44 cd 99 bc af fd e1 bc
       0.1234105 0.035905033 -0.018774636 -0.027586786
0000d0 e1 33 28 bd 99 ea ab bb d2 4f 82 3d 15 cf 04 3e
       -0.0410651 -0.005246472 0.06362881 0.1296962
0000e0 c8 85 ad 3d 77 0d 90 3d 6b 4f 85 3d 10 a6 ac 3d
       0.084727824 0.07033818 0.065092884 0.084301114
0000f0 ff 56 84 3d b7 03 e6 3b 59 75 3e 3c 04 45 d0 3d
       0.06461906 0.007019486 0.011624658 0.10169414
000100 0a a2 aa bd 1d b0 bb 3d 55 80 dd 3d 30 07 c5 38
       -0.08331688 0.0916445 0.10815493 9.395031e-05
000110 0f 41 e7 3d 3a 2d ab 3d fa b0 70 bc 7f 5b 6c bd
       0.11291706 0.08358236 -0.014690632 -0.057704445
000120 94 e3 b4 3d 7c 34 f3 39 6a 9b 30 bc bd cd 04 3c
       0.088324696 0.00046387676 -0.010779241 0.008105692
000130 e8 a9 18 3c 91 24 df 3c ca 61 95 3d 6f fa 6b bd
       0.009317853 0.027239116 0.072940424 -0.05761188
000140 ec 0e fe 3d dd 7b 8a bd 66 88 08 3e 06 17 70 bd
       0.1240519 -0.06761906 0.13333282 -0.058615707
000150 f8 a6 51 bc 7f a6 f8 3c 7f c8 c9 3d 90 c9 62 bd
       -0.012796156 0.030352829 0.09852695 -0.055368006
000160 72 ee b0 b9 16 16 8c 3d b0 3b 87 3d 87 a9 ea bd
       -0.00033746992 0.0684015 0.06603181 -0.11458116
000170 42 7d 8f 3c 16 e0 fc bc d5 57 92 3d 05 2c b1 3c
       0.017515782 -0.030868571 0.07145659 0.021627435
000180 2a d1 8a bd e9 44 4a 3c d1 75 d2 3d 96 3c 6b 3c
       -0.06778176 0.012345531 0.10276378 0.0143577065
000190 89 84 31 3d 22 18 00 3e d1 2b 5a 3b 3b 45 d1 bd
       0.043339286 0.12509206 0.0033290277 -0.10218283
0001a0 36 e4 54 bd be c3 eb bc 3d ce 0d 3d 2f 42 d2 3d
       -0.05197545 -0.02877986 0.034620512 0.1026653
0001b0 dd 7a f3 bd 1b e4 03 3e 65 6c 3a 3d c6 21 f8 bb
       -0.11888669 0.12879984 0.04551353 -0.0075723855
0001c0 c8 a8 82 bd 53 78 b5 3d 57 19 e3 3b 21 c7 b8 3d
       -0.06379849 0.08860841 0.006930511 0.09022356
0001d0 e1 98 44 bd 91 77 c0 3d 8d 0e 2a bd 40 ac 24 bc
       -0.04799736 0.093978055 -0.041517783 -0.010050833
0001e0 80 a8 e2 3b d1 df ac bd 33 dc fc 3d e3 3d c2 bd
       0.0069170594 -0.08441127 0.12346687 -0.0948446
0001f0 76 df 60 bc 48 d9 b9 3d e5 4a bc 3d f4 37 ff bd
       -0.013725152 0.09074646 0.091939725 -0.12461844
000200 65 c3 d3 3d a6 02 b2 3d 9e 71 b6 ba 0e 94 da 3d
       0.10340003 0.086919114 -0.0013919359 0.106727704
000210 2d ff a9 bd cf a5 aa 3b 7c 30 44 3d 8b f6 16 3e
       -0.08300624 0.005207754 0.0478978 0.14742486
000220 e9 51 c8 3d 6e fb a0 bd 8b 27 a3 bd cd c6 a8 3c
       0.09781248 -0.078604564 -0.079665266 0.020602608
000230 c0 fd eb 3c 16 d5 45 bc fa ab 4e 3d ec f7 07 3e
       0.02880752 -0.012074729 0.05045698 0.13278168
000240 69 16 d1 3d 3d 04 e1 bd 6e 2e fb bd f4 35 d9 3d
       0.102093525 -0.109871365 -0.12264715 0.10605994
000250 d4 4f c9 3d 7f b6 da bc 95 6f e2 bd ad 00 af bc
       0.09829679 -0.026698349 -0.11056439 -0.021362627
000260 b7 d1 cd 3d b3 32 63 bd 7e 52 54 3d a8 0f d0 3d
       0.100497656 -0.055468272 0.051836483 0.10159236
000270 00 71 5d bd 47 90 92 3d 8c 5c c8 b9 93 4a 9a bd
       -0.054062843 0.07156425 -0.00038215925 -0.07533755
000280 4d fb 83 3d 26 73 05 bd b1 3c c2 3d b4 c3 00 3c
       0.06444416 -0.032580517 0.09484232 0.007859159
000290 9a 68 13 bd e1 bc e9 bc 28 f1 6a bd 74 9c 1e 3d
       -0.035988428 -0.028532447 -0.05735889 0.038723424
0002a0 0e 8a c3 3d 3d 8b 61 3c 25 46 d9 bd bb 73 52 3c
       0.09547816 0.013766107 -0.10609082 0.012844975
0002b0 0a 5b 05 bd fd 21 92 bd 8f c4 0c 3e 82 38 28 3d
       -0.032557525 -0.07135389 0.13746856 0.041069515
0002c0 6c ad 21 3e e8 7f 5f bc 38 ac a4 bd ab 85 0d 3e
       0.15788811 -0.013641335 -0.080406606 0.13820522
0002d0 52 29 10 3e 66 20 dd 3d b1 79 cf 3d f7 b0 a0 bd
       0.14078262 0.10797195 0.10130633 -0.07846253
0002e0 4c a3 4b bd bf b2 e3 bd 94 ba 5c 3d eb e9 9f 3d
       -0.04971628 -0.111180775 0.053888872 0.07808288
0002f0 a5 04 c1 bd 49 c7 8c bc 68 fe e1 3d 19 99 d3 38
       -0.09424714 -0.01718487 0.11034852 0.00010089781
000300 da fd a5 3c f6 2d e9 3d 54 b7 10 3d f6 6f db 3d
       0.020262647 0.113857195 0.035331085 0.10714714
000310 93 91 83 bc 71 ea b4 3d 8e 3a a8 bc 71 69 88 3d
       -0.016060626 0.08833779 -0.020535734 0.06660736
000320 2c ec ae 3d 90 f7 0b bd 34 e6 31 3d 7d 17 f1 3d
       0.0854114 -0.03417164 0.04343243 0.11772058
000330 1b 85 41 3d e6 14 79 bd 6a 97 dd bc 57 26 d3 3d
       0.04724608 -0.060810946 -0.027049739 0.10310047
000340 85 71 e5 3d 2d bd 07 3e 1b eb 76 3c 4a 97 30 3d
       0.11203293 0.13255759 0.015070702 0.04311303
000350 08 d9 99 3c c4 79 db bd fa 1e 04 bd ea 5e db bc
       0.018780246 -0.10716584 -0.032256104 -0.026778657
000360 37 3b 0b 3e b3 f9 aa bd 1a 40 bf b8 fc 26 0f bd
       0.13596807 -0.083484076 -9.1195296e-05 -0.034949288
000370 3e f7 c4 3d b1 2f e2 bd 1a 7c 34 bd 08 21 bd 3d
       0.0961747 -0.11044253 -0.044063665 0.09234816
000380 00 ad 0a bd 4e 4d eb bc cd 05 8b 3d d4 25 d5 3c
       -0.033856392 -0.028723385 0.06788216 0.026019014
000390 5a 5a 0b 3d 7a 69 df 3d bd a1 9d bd 80 cc b0 bb
       0.034021713 0.1090879 -0.07696865 -0.005395472
0003a0 b9 32 d1 3d 7f 1f a7 3c aa 13 68 bc 68 9a f4 bd
       0.10214753 0.02040076 -0.0141648445 -0.11943513
0003b0 9a 0d 8d 3d 5d 21 82 bd 15 e1 44 3d 5f 07 7a bd
       0.0688736 -0.0635402 0.048066217 -0.061042186
0003c0 33 d5 9c 3d 53 a1 81 bd 79 dd 12 3d 62 73 c8 3d
       0.07657852 -0.06329598 0.035855744 0.097876325
0003d0 e9 76 8a bd 1f b9 bc 3d 52 fc b7 bd 3c 38 95 3d
       -0.067609616 0.092149965 -0.08983673 0.072861165
0003e0 fa ac 7f 3d bd ea 97 3d 82 9c 0d 3d ca e6 35 bd
       0.062420823 0.0741782 0.034573086 -0.04440955
0003f0 67 1d 07 3e d7 58 0c 3e a1 95 5f bc d9 74 42 3d
       0.1319481 0.13705765 -0.013646514 0.047474716

model.2.weight f4 [10, 256]
000000 7c 2f ab 3c 08 24 d5 bd d3 81 29 bd fc 70 27 be
       0.020896666 -0.10407263 -0.041383576 -0.16351694
000010 15 c0 1d 3d 9d 8c 9d bc f1 11 9b 3d 3c 05 52 3d
       0.03851326 -0.019232089 0.075717814 0.051274523
000020 97 00 87 bc 65 cc 29 bd 1a 1d 7e 3c fe 9a 21 bd
       -0.016479773 -0.04145469 0.015509868 -0.039454453
000030 6a e4 af 3d 92 50 f0 3c 92 4d d8 3d 6e 3e b4 bd
       0.085884884 0.029335294 0.1056167 -0.0880097
000040 9d 27 ac 3c 4f f5 79 3d 74 d9 53 3c 0a d1 01 bd
       0.021014983 0.06102496 0.012930263 -0.031693496
000050 12 c3 95 3d 2e 8d 62 bc 77 55 9c 3d 5c 1c 26 3d
       0.07312597 -0.013827605 0.076334886 0.04055439
000060 8f 3b a8 3d f8 07 65 3d cf 69 7c bd 68 e3 4f 3d
       0.08214485 0.055915803 -0.061624344 0.05075398
000070 ac 4d aa 3a 10 d5 8b bc bc 89 21 3d ac 45 ba 3c
       0.0012993119 -0.01706937 0.039437994 0.0227383
000080 f8 0e a6 3d 35 d8 66 bd 1e c3 0b 3d 7a 92 ff 3a
       0.08108324 -0.056358535 0.034121625 0.001949861
000090 ba 12 d9 3a 3a 0d b4 3c 95 f0 3e bd 19 d9 23 3d
       0.0016561367 0.021978963 -0.046616156 0.040001962
0000a0 b0 c2 5c bc af 44 a9 3b 98 f3 74 3d 4e b3 e8 bd
       -0.0134741515 0.0051656584 0.05980262 -0.11362325
0000b0 f8 a1 3c bc da e6 79 bd da 22 63 bd 09 31 aa 3c
       -0.011513226 -0.061011173 -0.05545316 0.020775335
0000c0 bb c7 5f 3c df 2e 3b bd 5b 88 ad bc 23 a3 67 bd
       0.013658459 -0.045698997 -0.021183183 -0.056552064
0000d0 fa c3 ae bc b7 d3 34 3b 08 fe d0 bc 14 c3 85 3c
       -0.021333683 0.0027592012 -0.025511757 0.016328372
0000e0 d5 92 37 3d f8 8a 0b bd 35 b6 37 bd b4 08 74 bd
       0.044817764 -0.034068078 -0.0448515 -0.059578612
0000f0 4d a2 c2 bc ca 7c 3d 3c 5a 36 87 3c 67 99 2b 3d
       -0.023759032 0.011565397 0.016505409 0.041894343
000100 cc 07 86 bd 71 51 50 bd 07 ad 17 be d5 4c bb 3c
       -0.06544456 -0.05085892 -0.14812098 0.022863785
000110 fa 49 86 bd 55 42 89 3d b2 bd 29 3d 2e 3b 08 3d
       -0.06557079 0.06702105 0.041440673 0.033259563
000120 c4 e6 8a bc 4e e4 05 bd b8 7e 82 bd 8d a2 7c 3d
       -0.01695574 -0.03268843 -0.06371826 0.061678458
000130 d8 e6 4d 3c e6 b1 53 bd 40 e6 76 3c b0 e3 af bd
       0.0125672445 -0.05168333 0.015069544 -0.0858835
000140 ac 27 bc bd 02 2c 02 bc 8a d9 f7 bc e9 84 2c 3c
       -0.09187254 -0.007945063 -0.030255098 0.010529735
000150 1d 44 2f bc 91 54 b0 bc d3 d9 f0 3a 67 8f 9e bd
       -0.010697392 -0.0215247 0.0018375464 -0.077421956
000160 c3 f0 60 3c d9 a8 b6 bc db 82 5a bd e9 3a 4c 3d
       0.013729277 -0.02229731 -0.05334745 0.04986087
000170 b4 1c 88 3c 56 56 9b 3c e4 19 61 be 8e 55 3a 3d
       0.01661525 0.018962067 -0.21982533 0.045491748
000180 50 a7 f1 ba c7 c2 85 3c b5 29 37 bd 4c bb 1d be
       -0.0018436704 0.016328229 -0.04471751 -0.1540348
000190 f3 b2 87 bc ea 94 08 be 6f ab 07 3e 37 dd 58 bd
       -0.016564822 -0.13338056 0.1324899 -0.052945342
0001a0 e3 75 a2 bc 62 9d 6b 3c fe 9b 31 3b 6d 62 56 bd
       -0.019831603 0.014380785 0.0027101035 -0.05233996
0001b0 13 1b 75 bc 82 43 09 3d d3 92 58 bd e8 28 1c be
       -0.014960068 0.033511646 -0.052874397 -0.1524998
0001c0 49 9f 7e 3d 1d ef 42 bd 5e fc 2a bc 12 9c 34 3d
       0.062163625 -0.047591317 -0.010436146 0.044094153
0001d0 64 ca 8f 3c dd 00 49 bd c7 7b 51 3d 00 ee b1 3b
       0.017552562 -0.04907309 0.051143434 0.005429983
0001e0 a6 87 15 bd 3c 2e aa 3d ba 06 58 be 9f fe 89 3b
       -0.036506318 0.083096 -0.21096316 0.0042112614
0001f0 0f 23 81 3d 2b 93 f4 3a 04 b3 75 bd 0d 15 c2 3c
       0.06305515 0.0018659582 -0.059985176 0.023691678
000200 6f 93 50 3d 75 3a 56 bc 8c 25 d1 3a 5a 57 be bc
       0.050921854 -0.013075461 0.0015956624 -0.023235012
000210 c7 11 4a bd 6f 0a 1f bd 37 9d 88 bb 9a 00 77 bc
       -0.04933336 -0.03882831 -0.004169132 -0.015075827
000220 cc 51 1e bd 88 2d 8a 3d c0 5b c4 bd e9 a6 2f 3c
       -0.038652226 0.06746966 -0.095878124 0.010720947
000230 0d 8e 04 be 9b dd 8d bd 1b ea 2b bd 20 d3 1c bd
       -0.12944813 -0.069270335 -0.041971307 -0.038287282
000240 e5 6d bf bd 26 94 0f bd 81 43 64 3b 50 b6 b2 bd
       -0.093471326 -0.035053395 0.0034830275 -0.087261796
000250 1c ff 08 bd db 70 8b 3d b5 fb 74 3d 90 85 4b 3d
       -0.033446416 0.06808635 0.05981036 0.049687922
000260 94 cc 93 bd 55 bc 01 3c a0 eb 1c bd 8d 2f ea bc
       -0.072167546 0.007918437 -0.038310647 -0.028587127
000270 4e a2 25 3d ed 25 3a bd 1b c9 16 bd be 4f fc ba
       0.04043799 -0.045446325 -0.036812883 -0.0019249839
000280 c4 0e 7f bd 56 ef 4e bd a9 18 a2 bd d2 a0 1f 3d
       -0.06226994 -0.050521217 -0.0791486 0.03897173
000290 fd 13 20 be 91 af 83 3c 70 62 e9 3d 07 ec 46 bd
       -0.15632625 0.016074928 0.113957286 -0.048564937
0002a0 81 a2 30 3d 59 d5 5d bd 62 cb 7b bd 98 7e c0 bc
       0.043123726 -0.054158542 -0.061473258 -0.023497865
0002b0 dd df 08 3d ea dc b8 bd 42 85 e5 3b 1b 5c 83 3a
       0.033416618 -0.09026511 0.007004411 0.0010021956
0002c0 bc c6 9f bd fe 96 ec 3c 73 44 1c bd 1a 1a c4 bd
       -0.078015774 0.028880592 -0.038151216 -0.09575291
0002d0 55 bf 0f bd f5 b5 e7 bc e2 12 5c bd 33 ca 88 3d
       -0.035094578 -0.028285006 -0.053728946 0.066791914
0002e0 53 da 97 3c e7 44 f2 3a f5 a4 81 bd 3d 1a 12 bd
       0.018536722 0.0018483669 -0.06330291 -0.035669554
0002f0 d8 7d bf 3c dc 1c c8 3c 33 ec 0d bd 72 9b f3 bd
       0.023375437 0.024427824 -0.034649085 -0.11894883
000300 5e c7 5a bd af d0 8b bd 8d 62 6e 3d 3e 9b b4 bd
       -0.053412788 -0.068269126 0.058199454 -0.088186726
000310 47 c2 5b 3d 9e 4d b5 3c 71 df 82 be a5 1c 76 bd
       0.053652074 0.022131737 -0.25561097 -0.06008591
000320 b3 63 9d bd 17 12 ac 3c 80 40 45 3d fb 9f 46 bd
       -0.07685032 0.02100472 0.048157215 -0.048492413
000330 19 4f 53 3c 26 ab d2 bb 46 e3 0d 3d 70 a5 f7 bd
       0.012897276 -0.006429094 0.034640573 -0.120921016
000340 77 04 8c bd 64 66 05 3d 78 78 ab 3d 36 5c d8 bc
       -0.06836789 0.03256835 0.08372587 -0.026411157
000350 7e 09 1f 3c 5a 35 72 3d 6b 63 08 3d 6a 45 84 bc
       0.009706853 0.05913291 0.033297937 -0.01614638
000360 db a7 01 bc 86 3b 6b 3c 5c 73 8a bc ed ec ad 3c
       -0.007913555 0.014357453 -0.01690071 0.02123114
000370 8f eb 97 3d 5f 82 97 3d 1a a2 84 3d 5f b8 74 3d
       0.07417976 0.07397913 0.06476231 0.059746142
000380 59 4d 03 be f1 ee 17 bd 59 db 14 bd 0b 38 b8 3d
       -0.12822475 -0.037093107 -0.036342 0.08995064
000390 37 09 0b 3d 65 28 92 bd 36 77 f0 ba 4a 65 71 3a
       0.033944335 -0.07136611 -0.0018346075 0.00092085137
0003a0 85 cc 94 3c ee a3 a1 3c 55 21 53 bd 4c 39 4f 3b
       0.018163929 0.019731488 -0.05154546 0.0031619845
0003b0 94 e9 21 3e 31 90 96 3c 7c fd 75 bd 0b ba b8 bd
       0.15811759 0.018379303 -0.060056195 -0.0901986
0003c0 7b d3 6a 3d ae e1 31 bd 14 17 ad bc f7 99 45 3b
       0.05733059 -0.043428116 -0.021129169 0.0030151585
0003d0 5b 26 bc bd 5e c1 97 3c 3f bc f2 bc ee d7 85 3d
       -0.09187003 0.018524822 -0.029630778 0.06535326
0003e0 24 0f de bc 61 72 56 3d 1a 5e c4 bd 41 4b 66 3c
       -0.027106829 0.052355174 -0.09588261 0.014056028
0003f0 09 80 86 ba 2e 40 0f be 8d 19 23 3d 5e a8 9d 3d
       -0.0010261546 -0.13989326 0.03981929 0.07698129

model.2.bias f4 [10]
000000 86 41 10 3d 1a 87 03 bb f4 b3 42 bd 27 e4 2f bd
       0.035218738 -0.002006954 -0.047534898 -0.042942192
000010 a6 95 45 3d 11 fe f4 bb 6b d3 26 3d f7 eb 19 bd
       0.04823842 -0.007476576 0.040728968 -0.03757855
000020 42 5f 5d 3d 59 92 30 3d
       0.054045923 0.043108318

exp_avg f4 [256, 64]
000000 00 00 00 00 08 f1 cd b6 ca 26 5f b7 ee 09 31 b8
       0.0 -6.137536e-06 -1.3300867e-05 -4.2209336e-05
000010 a4 b4 65 b8 2a 77 12 b8 9a 27 0b 36 be 3a c2 b5
       -5.476609e-05 -3.4920093e-05 2.0735665e-06 -1.4471223e-06
000020 86 e4 8c 34 34 68 9b b7 01 f6 69 b8 0e 3c f6 b7
       2.6243305e-07 -1.8525963e-05 -5.5780638e-05 -2.935345e-05
000030 f4 78 38 b8 c7 08 a4 b7 3e a2 7d b6 b1 6b 93 b5
       -4.3981665e-05 -1.955441e-05 -3.7794375e-06 -1.0983696e-06
000040 b7 fe 0c 34 ee 05 b9 b6 6c d7 46 36 07 e4 32 36
       1.3131181e-07 -5.51412e-06 2.9629691e-06 2.6656796e-06
000050 68 db dc b7 f5 06 4d 38 79 6b 8a 36 6d 4c 4e b3
       -2.6328213e-05 4.8882288e-05 4.125232e-06 -4.803262e-08
000060 00 00 00 00 82 5b 07 37 0e cd ae 37 a0 20 c1 b7
       0.0 8.067933e-06 2.0837902e-05 -2.3022585e-05
000070 57 59 23 b8 c0 aa 0f 36 40 33 10 35 e7 ec 71 b2
       -3.8945433e-05 2.140805e-06 5.371876e-07 -1.4081912e-08
000080 00 00 00 00 fc 8a 32 b7 59 fb 96 b7 24 6b 31 b7
       0.0 -1.0641987e-05 -1.7998436e-05 -1.0574968e-05
000090 e4 23 1a b8 99 e5 10 b8 22 cd 93 b6 00 00 00 00
       -3.6749887e-05 -3.4546105e-05 -4.404822e-06 0.0
0000a0 aa 1b db 32 a0 42 1d b5 e5 74 c5 b7 ae ed d6 b7
       2.5507536e-08 -5.858401e-07 -2.3538663e-05 -2.5621466e-05
0000b0 9e b1 25 b8 45 79 33 b8 bf 3a c6 b7 1e 34 06 b4
       -3.9504484e-05 -4.2789867e-05 -2.3630795e-05 -1.2498683e-07
0000c0 d4 75 7b b1 23 eb 3e b6 18 2a 14 b8 16 84 11 b8
       -3.6592285e-09 -2.8449074e-06 -3.5325153e-05 -3.469371e-05
0000d0 4a 37 cb b7 89 da 78 b8 70 80 e0 b7 f8 bb 90 36
       -2.4225232e-05 -5.9331334e-05 -2.676269e-05 4.313417e-06
0000e0 86 4b 12 b1 5a 1c c0 b6 b1 07 10 b8 94 2b 2d b8
       -2.1288726e-09 -5.7253465e-06 -3.433944e-05 -4.1287e-05
0000f0 d4 d4 11 b8 a2 f0 58 b8 89 16 56 b7 1a 79 f4 b6
       -3.4768906e-05 -5.172252e-05 -1.2760641e-05 -7.2858647e-06
000100 00 00 00 00 94 64 9c b6 96 7c 4a b8 91 a3 ba b8
       0.0 -4.660871e-06 -4.8276583e-05 -8.899638e-05
000110 8a b1 06 b9 63 d6 48 b8 78 62 41 b5 aa 9d b0 32
       -0.00012845374 -4.788338e-05 -7.2041394e-07 2.0560794e-08
000120 b0 1c e1 34 ef a4 b7 b7 df ff 01 b9 4b 25 21 b9
       4.193039e-07 -2.1892103e-05 -0.00012397718 -0.00015368049
000130 c4 82 00 b9 cf 42 86 b8 94 8b df b7 a4 c9 00 33
       -0.00012255745 -6.402062e-05 -2.6648668e-05 2.9985713e-08
000140 3a a6 61 34 6f 78 83 b7 b2 15 ac b8 94 88 a1 b8
       2.1015231e-07 -1.5672498e-05 -8.20564e-05 -7.702518e-05
000150 25 41 d2 b8 b6 37 0c b8 82 ab a2 b7 0d b8 31 34
       -0.000100257144 -3.3430486e-05 -1.939177e-05 1.6551367e-07
000160 00 00 00 00 08 65 87 b6 bf bd 23 b8 f8 d0 15 b9
       0.0 -4.035075e-06 -3.9038943e-05 -0.00014287594
000170 a5 88 1b b9 33 70 92 b8 2e 08 d3 36 00 00 00 00
       -0.00014832856 -6.982721e-05 6.2892423e-06 0.0
000180 00 00 00 00 ee 4a 45 b7 b8 4f a7 b8 51 bc 18 b9
       0.0 -1.1759561e-05 -7.978029e-05 -0.00014566003
000190 4b db bb b8 30 9e 81 b8 a7 9c f3 b7 00 00 00 00
       -8.957701e-05 -6.180664e-05 -2.9040804e-05 0.0
0001a0 db 7e 79 33 ad d2 d3 b7 bf 54 d1 b8 1f 18 df b8
       5.8090205e-08 -2.5251264e-05 -9.981682e-05 -0.000106379615
0001b0 bd 20 92 b8 8e a9 04 b9 6e d2 8b b8 c6 a0 4f b5
       -6.9679205e-05 -0.00012651665 -6.667232e-05 -7.7347465e-07
0001c0 62 35 46 b3 a6 91 00 b7 2f 53 0c b9 b1 4f f3 b8
       -4.614902e-08 -7.663306e-06 -0.00013382429 -0.000116019866
0001d0 ae 6c 94 b8 62 5d 41 b9 15 85 a6 b8 51 6b 31 37
       -7.077433e-05 -0.00018440702 -7.940285e-05 1.0575009e-05
0001e0 13 b8 92 b2 83 cd 31 b6 e1 b1 66 b8 1d a4 e7 b8
       -1.7080344e-08 -2.649468e-06 -5.5001936e-05 -0.00011045507
0001f0 81 51 23 b9 2b af 07 b9 1e 64 f9 b7 20 ae 24 35
       -0.00015575254 -0.00012939858 -2.9729734e-05 6.1348146e-07
000200 00 00 00 00 80 50 40 36 68 ba 36 b7 9f 91 ca b7
       0.0 2.8657087e-06 -1.0891446e-05 -2.4148087e-05
000210 c2 f9 2b b7 a1 b8 c4 37 ac 12 f1 36 9a 21 96 b4
       -1.02505455e-05 2.3450995e-05 7.1845334e-06 -2.7964126e-07
000220 0d d2 7b 34 f6 35 fe 35 8c aa 0b b8 86 e4 37 b8
       2.3452613e-07 1.8940179e-06 -3.3299017e-05 -4.384343e-05
000230 f1 55 1e b8 7c 88 f8 37 cf a0 18 b6 ac 04 c5 b5
       -3.7750175e-05 2.962746e-05 -2.2743368e-06 -1.4679003e-06
000240 17 a6 eb 33 4c e2 01 37 c7 51 84 b8 e9 bb b9 b7
       1.0973252e-07 7.741688e-06 -6.309483e-05 -2.2141221e-05
000250 96 1d b3 b7 41 24 8d 36 0c 08 6b b7 89 80 81 b5
       -2.135224e-05 4.206348e-06 -1.4008965e-05 -9.648658e-07
000260 00 00 00 00 b5 36 72 b6 91 63 f1 b7 78 7e e5 b7
       0.0 -3.6092654e-06 -2.8775803e-05 -2.7357819e-05
000270 88 e7 3a b7 96 bd f5 b7 ea e5 8b b7 e4 bd b5 b2
       -1.11403715e-05 -2.9294559e-05 -1.6677153e-05 -2.1157526e-08
000280 00 00 00 00 f8 08 a8 b6 ad 33 14 b8 92 74 1f b8
       0.0 -5.0078343e-06 -3.5334077e-05 -3.801712e-05
000290 c7 0c d1 b7 c8 e7 14 b8 a7 a7 08 b7 00 00 00 00
       -2.4920691e-05 -3.5501813e-05 -8.145266e-06 0.0
0002a0 a5 71 02 b2 ac 09 ee b6 2b a1 f0 b7 c9 d1 1e b8
       -7.592836e-09 -7.0940787e-06 -2.868528e-05 -3.7865513e-05
0002b0 d4 7a 49 b8 61 61 c9 b7 92 eb 3d b6 e7 8e ec b4
       -4.8036527e-05 -2.4006413e-05 -2.8300315e-06 -4.40624e-07
0002c0 9d e9 ee b0 92 b8 aa b6 5c 02 e1 b7 96 3c f0 b7
       -1.7383176e-09 -5.0878816e-06 -2.6823189e-05 -2.8638442e-05
0002d0 bf 7f bf b7 d2 86 0d b8 31 60 12 b7 bd a6 7e 36
       -2.282846e-05 -3.374258e-05 -8.724674e-06 3.7946004e-06
0002e0 00 00 00 00 f1 f1 ec 35 f6 c5 1c b7 4f 3d f5 b7
       0.0 1.7653784e-06 -9.344416e-06 -2.9234825e-05
0002f0 62 4d 23 b8 cf b3 fc b7 24 e3 96 b7 d6 e5 20 b7
       -3.8934297e-05 -3.012447e-05 -1.7987164e-05 -9.590256e-06
000300 00 00 00 00 04 14 73 b6 18 71 f2 b5 00 36 06 38
       0.0 -3.6221472e-06 -1.806332e-06 3.199838e-05
000310 ad 06 81 38 c2 1d a6 37 d2 74 d1 36 84 a4 00 36
       6.152443e-05 1.98026e-05 6.242285e-06 1.9169247e-06
000320 ce da 91 b5 30 5a 7e 37 40 13 6f 37 de 77 83 37
       -1.0867022e-06 1.5160578e-05 1.4249992e-05 1.5672234e-05
000330 39 c1 87 38 60 5c fc 36 d3 26 19 37 55 f6 51 b5
       6.473292e-05 7.520939e-06 9.12855e-06 -7.821703e-07
000340 49 83 09 b5 0c 39 67 37 6d ce 38 b7 c2 f6 af b7
       -5.122752e-07 1.3781955e-05 -1.1015317e-05 -2.0976531e-05
000350 4b f9 39 b7 9a 2c 9e 38 48 c9 8c 37 f8 a3 94 b5
       -1.1084902e-05 7.542335e-05 1.678303e-05 -1.107458e-06
000360 00 00 00 00 3c e3 6c 36 2c f2 c3 b7 48 f9 70 b8
       0.0 3.5299008e-06 -2.3358582e-05 -5.745262e-05
000370 98 c1 f1 36 bd f7 81 38 29 98 d2 37 bf d1 c4 b2
       7.204897e-06 6.197344e-05 2.5104806e-05 -2.2912785e-08
000380 00 00 00 00 35 a8 be 37 60 b0 da b6 74 14 c2 37
       0.0 2.2728093e-05 -6.517439e-06 2.3136126e-05
000390 48 a1 dc 37 61 52 8e 37 00 30 ac 37 00 00 00 00
       2.6301146e-05 1.696608e-05 2.052635e-05 0.0
0003a0 14 c5 6a b2 26 aa df 36 90 d1 20 38 f4 9d 5b 38
       -1.3665403e-08 6.665726e-06 3.8342143e-05 5.2360774e-05
0003b0 66 98 ba b7 70 18 3d b8 85 d8 8d b6 5e ee 21 35
       -2.2243894e-05 -4.508387e-05 -4.2273336e-06 6.0324044e-07
0003c0 84 e4 b4 33 c6 93 cd b6 b2 25 5c 37 22 6d c9 38
       8.42347e-08 -6.126679e-06 1.31217985e-05 9.6047545e-05
0003d0 5e 7e d0 37 d0 cb c9 b7 92 08 1a 38 40 83 e2 36
       2.4854377e-05 -2.4055975e-05 3.6724443e-05 6.7506044e-06
0003e0 56 97 fa 32 9a 2e 7e b6 4c 03 3e b7 22 ee 0a 38
       2.917265e-08 -3.7876075e-06 -1.132565e-05 3.3123542e-05
0003f0 68 3c 3b 36 cc 4b d7 37 f2 14 70 38 ec 0d af 37
       2.7900332e-06 2.5665293e-05 5.7239966e-05 2.0868109e-05

exp_avg_sq f4 [256, 64]
000000 00 00 00 00 ee 6e 8a 32 1b 45 23 36 6e 59 e7 36
       0.0 1.611576e-08 2.4329117e-06 6.8947475e-06
000010 03 d4 f9 36 4d ec 38 36 bf 47 a4 34 85 23 0c 31
       7.4454597e-06 2.7555682e-06 3.0599583e-07 2.0392872e-09
000020 82 c2 23 2f 2e ee c1 34 0e 99 c1 36 ac be af 36
       1.4893867e-10 3.612235e-07 5.769666e-06 5.2376035e-06
000030 a6 66 bf 36 15 bb a8 36 c3 b3 16 35 b4 73 20 31
       5.7041934e-06 5.0285694e-06 5.614094e-07 2.3348834e-09
000040 d2 19 83 2e 63 9a 1a 35 bd 9d d4 36 aa 5f a7 36
       5.961777e-11 5.759413e-07 6.3364555e-06 4.9881246e-06
000050 e8 62 f2 36 fb 19 98 36 0d 5a c3 34 6c 3f 03 30
       7.223676e-06 4.5329775e-06 3.63871e-07 4.774765e-10
000060 00 00 00 00 3d 83 bc 34 37 7f 83 36 1f c6 ca 36
       0.0 3.5113217e-07 3.918914e-06 6.0431335e-06
000070 2c 47 ec 36 1a 55 91 36 dc 68 d9 34 9a 46 a9 2c
       7.0416336e-06 4.331244e-06 4.0495695e-07 4.8111072e-12
000080 00 00 00 00 df a8 f0 33 e6 51 59 35 5c 35 1e 36
       0.0 1.12065884e-07 8.095798e-07 2.3574894e-06
000090 21 0a 92 36 47 2f 96 36 fb c3 d4 34 00 00 00 00
       4.3523182e-06 4.475852e-06 3.9630672e-07 0.0
0000a0 b1 fd 12 2d a7 3d d0 33 b9 1c 0a 36 50 40 7c 35
       8.35547e-12 9.696969e-08 2.0580321e-06 9.39709e-07
0000b0 8e 3c ef 35 15 ba a9 36 c5 25 70 35 13 b4 23 30
       1.7824511e-06 5.0582553e-06 8.946193e-07 5.9554955e-10
0000c0 7c 0d 73 2e 05 31 12 34 2f f7 ab 36 8d f8 13 36
       5.526378e-11 1.3615143e-07 5.124973e-06 2.2049383e-06
0000d0 8e 5d 99 36 46 ea bd 36 02 c9 ac 35 52 60 0d 32
       4.5706465e-06 5.659912e-06 1.28735e-06 8.229181e-09
0000e0 c9 bf d2 2c b6 93 5b 32 77 ad 3d 36 da ca e5 36
       5.9898514e-12 1.2781063e-08 2.8264164e-06 6.848347e-06
0000f0 83 55 fd 36 5f 62 74 36 bd b6 ae 34 bf 61 7a 32
       7.5499424e-06 3.6416093e-06 3.2542985e-07 1.457414e-08
000100 00 00 00 00 b4 e0 e4 31 ab 9a 56 35 7f d0 41 36
       0.0 6.661219e-09 7.9946284e-07 2.8880602e-06
000110 82 a7 4d 36 2b 35 5c 35 16 46 dc 32 ac 0e 6e 2f
       3.0644883e-06 8.2033756e-07 2.5643242e-08 2.1651186e-10
000120 3a 45 41 2f 7f 54 fd 33 d2 8b 33 36 a5 eb 58 36
       1.7577842e-10 1.17966e-07 2.6754465e-06 3.2323671e-06
000130 0d 94 1f 36 66 d1 9f 35 83 e9 c3 33 1b 49 6d 2f
       2.3779023e-06 1.1907366e-06 9.1228706e-08 2.1580997e-10
000140 14 49 3c 2e a0 ff 2f 34 06 80 38 36 69 71 59 36
       4.2811157e-11 1.6391141e-07 2.7492656e-06 3.2401533e-06
000150 e1 05 c2 35 44 ab 8f 35 05 a0 80 33 65 d5 a7 2d
       1.4455837e-06 1.0704175e-06 5.989572e-08 1.9080468e-11
000160 00 00 00 00 96 ea 2d 34 60 d9 0c 36 f9 95 69 36
       0.0 1.6197222e-07 2.0988155e-06 3.4807001e-06
000170 ea 94 58 36 6c 07 0c 36 3a 4f 26 34 00 00 00 00
       3.2273188e-06 2.0865946e-06 1.5488777e-07 0.0
000180 00 00 00 00 94 bb b6 34 51 ce 25 36 ed 6e 53 36
       0.0 3.4036623e-07 2.4707008e-06 3.1506017e-06
000190 ca 1d 20 36 17 f8 6d 36 1e 22 30 35 00 00 00 00
       2.3859197e-06 3.546016e-06 6.5614756e-07 0.0
0001a0 d4 39 8f 2d df 75 88 34 6c b2 29 36 be 0b 2f 36
       1.6282899e-11 2.5417737e-07 2.5286818e-06 2.6083867e-06
0001b0 0c 31 bd 35 03 5b 33 36 c3 c2 a9 35 9a dc be 30
       1.4095872e-06 2.6726054e-06 1.2648164e-06 1.3887018e-09
0001c0 7b 94 13 2f 3f c6 ac 33 06 0d 53 36 6f 87 2c 36
       1.3422323e-10 8.045435e-08 3.144903e-06 2.570883e-06
0001d0 f5 37 30 36 8d b9 8f 36 b4 eb d9 35 db 6c f8 32
       2.6258615e-06 4.283333e-06 1.6236359e-06 2.8920502e-08
0001e0 38 ad 82 2d 30 44 8e 31 be 24 75 35 f7 07 41 36
       1.4856213e-11 4.140496e-09 9.132308e-07 2.8763877e-06
0001f0 26 4d 8e 36 19 a9 47 36 d4 69 28 35 3c 7e ee 33
       4.240911e-06 2.9751739e-06 6.273888e-07 1.11057005e-07
000200 00 00 00 00 84 e9 bd 31 0f fd 07 35 c1 3f d6 35
       0.0 5.5271716e-09 5.065967e-07 1.5962797e-06
000210 f8 5c 92 35 2b fc 7d 34 22 bf 7f 33 7d ce f6 31
       1.0904905e-06 2.36542e-07 5.954565e-08 7.1830173e-09
000220 08 e5 a2 2d a5 8e e3 33 81 2e b0 35 3a 83 f5 35
       1.8518978e-11 1.0596458e-07 1.3126556e-06 1.8292114e-06
000230 f3 59 92 35 b1 04 00 35 8a 5f a8 33 63 5d 20 32
       1.0904026e-06 4.769054e-07 7.840488e-08 9.334459e-09
000240 00 7d af 2d 3a 4a 76 34 bc 6b ce 35 39 c6 be 35
       1.9950708e-11 2.2937539e-07 1.5379551e-06 1.4213794e-06
000250 bf 12 54 35 4c ca fa 34 fa 1b 12 34 81 51 2a 31
       7.9003433e-07 4.671332e-07 1.3607487e-07 2.4784585e-09
000260 00 00 00 00 00 fb 4f 34 03 37 91 35 fc 59 a2 35
       0.0 1.936969e-07 1.0819352e-06 1.209613e-06
000270 0c 46 a2 35 40 35 83 35 9f d2 16 34 0b 9d 1e 2d
       1.2090327e-06 9.775758e-07 1.4046462e-07 9.016131e-12
000280 00 00 00 00 16 9e 37 34 20 92 82 35 6c 08 c1 35
       0.0 1.7100714e-07 9.728283e-07 1.4382072e-06
000290 04 a6 07 36 a6 64 46 35 9b 97 bb 33 00 00 00 00
       2.0213201e-06 7.390721e-07 8.735443e-08 0.0
0002a0 e1 26 04 2e cc b6 4e 33 ae 0e 19 35 e4 cf 03 36
       3.0047857e-11 4.8129365e-08 5.7018303e-07 1.964153e-06
0002b0 23 aa 06 36 7c 3c e9 34 ff c9 13 34 42 ff 10 30
       2.0066589e-06 4.344364e-07 1.3763928e-07 5.274964e-10
0002c0 2e d6 ad 2b b0 7b 89 32 b4 14 2a 35 92 d0 e8 35
       1.2351836e-12 1.6005146e-08 6.336006e-07 1.7346049e-06
0002d0 c5 61 f5 35 27 95 8b 35 a4 39 33 35 3d bc 6a 33
       1.8282377e-06 1.0399716e-06 6.6766574e-07 5.4653572e-08
0002e0 00 00 00 00 53 a4 18 32 bc a4 f7 34 74 8c f7 35
       0.0 8.8849275e-09 4.6127195e-07 1.8443811e-06
0002f0 ae 81 15 36 10 f7 d1 35 8b 52 a2 35 60 1e e0 34
       2.2278214e-06 1.5643618e-06 1.2093964e-06 4.1745352e-07
000300 00 00 00 00 f4 c8 10 32 ed bd 5f 35 87 f0 72 36
       0.0 8.427595e-09 8.335035e-07 3.6200815e-06
000310 fc fc 79 36 62 85 e6 35 e7 20 59 34 61 42 dd 32
       3.7251148e-06 1.7175155e-06 2.022167e-07 2.5757972e-08
000320 b6 87 84 2f e3 47 15 34 e0 f5 45 36 c4 e2 6e 36
       2.4107089e-10 1.3902859e-07 2.9498406e-06 3.5596759e-06
000330 86 f1 54 36 8b 3d 5d 36 11 71 2c 35 18 7b 18 33
       3.1731047e-06 3.296739e-06 6.4239526e-07 3.550221e-08
000340 d9 f8 84 2e c7 e1 c9 34 59 5d 27 36 94 ea 23 36
       6.046869e-11 3.7603442e-07 2.4939275e-06 2.4425435e-06
000350 76 4b 27 36 af 66 14 36 6c 4e 03 35 bb 37 18 32
       2.4928863e-06 2.2113488e-06 4.891542e-07 8.860236e-09
000360 00 00 00 00 e2 37 55 34 30 e9 e7 35 f1 76 5a 36
       0.0 1.9857501e-07 1.7278708e-06 3.2553764e-06
000370 ee 5a 58 36 1f a3 f7 35 ef cc 01 35 8e fa a4 2c
       3.2239436e-06 1.8450409e-06 4.835446e-07 4.6889775e-12
000380 00 00 00 00 df 10 74 34 81 0a e5 35 fa 0c 80 36
       0.0 2.2730408e-07 1.7064887e-06 3.816208e-06
000390 30 9f 96 36 b0 1a 07 36 e8 68 47 34 00 00 00 00
       4.48888e-06 2.0132102e-06 1.8571484e-07 0.0
0003a0 4a 55 06 2c 87 e6 0d 33 e2 38 5a 35 26 ba e0 35
       1.908989e-12 3.3038784e-08 8.1294104e-07 1.6743477e-06
0003b0 b7 fa 80 36 a4 34 fb 35 f3 dc 18 34 02 0f 22 2f
       3.8438843e-06 1.8716278e-06 1.4236484e-07 1.4739146e-10
0003c0 eb d6 ba 2e 70 83 df 32 9b c3 8f 35 ab 53 3d 36
       8.496478e-11 2.6020388e-08 1.0711259e-06 2.8211896e-06
0003d0 2a 88 7c 36 ac b4 d7 35 e3 de 91 34 9e 1f 00 33
       3.7630184e-06 1.6071331e-06 2.7170526e-07 2.9831078e-08
0003e0 cc 10 26 2d 47 a8 41 32 e0 92 6f 35 10 a5 aa 36
       9.439737e-12 1.127234e-08 8.924817e-07 5.0856106e-06
0003f0 38 c9 82 36 b0 03 09 36 97 21 65 35 4d 22 9f 34
       3.897727e-06 2.0416737e-06 8.535803e-07 2.9641015e-07

exp_avg f4 [256]
000000 8e 90 6f b6 6b d1 5b b7 24 62 67 b6 e6 80 53 36
       -3.5697917e-06 -1.3102176e-05 -3.4478808e-06 3.151648e-06
000010 e1 ae 8c 33 c2 43 50 36 d8 f0 1e b6 b0 5b 6c b5
       6.551068e-08 3.1033856e-06 -2.3684024e-06 -8.8050274e-07
000020 c2 ef ff b5 50 e5 86 36 f5 d4 cf b5 04 fb 40 b5
       -1.9068759e-06 4.0202067e-06 -1.548468e-06 -7.189085e-07
000030 39 5e da 36 a0 6f 2b b7 3f 50 a2 b6 df 19 e4 b6
       6.5078752e-06 -1.0218384e-05 -4.837318e-06 -6.7979413e-06
000040 e8 28 4f b4 23 b4 08 b6 70 2a 26 b4 78 f1 9b 34
       -1.9293259e-07 -2.0370433e-06 -1.5475393e-07 2.9046691e-07
000050 2f 77 87 34 e1 40 f2 36 6a 12 ec b5 00 00 00 00
       2.5232427e-07 7.219715e-06 -1.7588729e-06 0.0
000060 84 16 b3 36 d0 cf 64 34 89 5f 83 35 00 00 00 00
       5.337237e-06 2.1309756e-07 9.788065e-07 0.0
000070 7a 3c 24 36 6b f3 81 b7 00 00 00 00 00 00 00 00
       2.4473106e-06 -1.5491349e-05 0.0 0.0
000080 ef 13 04 b7 9a 8d e5 35 d0 85 ad 33 3a a5 11 b7
       -7.872454e-06 1.7103041e-06 8.0802806e-08 -8.681143e-06
000090 74 24 a7 b6 8e 9d 49 36 70 b7 e7 b6 1c c2 d5 b5
       -4.9812315e-06 3.0043043e-06 -6.9056914e-06 -1.592623e-06
0000a0 00 00 00 00 b0 03 70 37 70 86 ed b6 65 d5 3c 37
       0.0 1.4305973e-05 -7.078801e-06 1.1255358e-05
0000b0 1d 7b b3 b6 40 97 62 b6 54 cb 04 36 a7 11 83 36
       -5.348948e-06 -3.3764663e-06 1.9787885e-06 3.9061592e-06
0000c0 b5 52 a9 b6 04 00 00 00 b2 3d 17 36 f6 2f c6 34
       -5.046221e-06 6e-45 2.2536665e-06 3.691527e-07
0000d0 a6 f9 82 36 f9 4e cb b5 e0 b3 e6 34 4e dc a7 b6
       3.903365e-06 -1.5147663e-06 4.2971715e-07 -5.0026347e-06
0000e0 5f d3 20 36 86 1b 02 36 9a e4 9c b6 51 6a b9 36
       2.3964892e-06 1.938753e-06 -4.675775e-06 5.5258065e-06
0000f0 6a 6d 11 37 04 00 00 00 f6 71 55 35 04 00 00 00
       8.668148e-06 6e-45 7.951452e-07 6e-45
000100 ec a2 0c b7 67 a5 08 36 59 68 76 b7 96 86 53 b7
       -8.3825835e-06 2.0361856e-06 -1.4687038e-05 -1.2607916e-05
000110 33 61 9d 36 df 86 8a 35 50 2e 1d 37 2a b6 a2 b5
       4.69028e-06 1.0321054e-06 9.368712e-06 -1.2122957e-06
000120 a2 b8 00 b5 64 ab cd 36 82 8c 13 36 0b 2d ed b6
       -4.795239e-07 6.1294286e-06 2.1986493e-06 -7.068394e-06
000130 a2 cc fb 35 62 a1 2d b5 fe ab be 35 1b cf bd b4
       1.8760513e-06 -6.4682365e-07 1.420616e-06 -3.5354682e-07
000140 d0 13 42 b6 c1 70 4b b4 0b 45 59 b6 fe 76 89 b6
       -2.8919785e-06 -1.8946868e-07 -3.2375708e-06 -4.0967707e-06
000150 85 af f7 b6 90 22 92 b6 71 61 d8 b5 cd d3 66 35
       -7.381607e-06 -4.3551627e-06 -1.6121613e-06 8.598989e-07
000160 de 3f 1d b7 71 b0 82 36 c8 d9 89 35 61 5b 59 2f
       -9.3727995e-06 3.8948424e-06 1.0270678e-06 1.97685e-10
000170 26 53 ae b6 7b 60 98 af f2 93 03 b7 4d 90 47 b7
       -5.195284e-06 -2.7717192e-10 -7.842655e-06 -1.1894922e-05
000180 e1 07 ae 32 57 76 76 b6 d2 0a 14 b7 5c e4 13 b5
       2.0259849e-08 -3.672574e-06 -8.824007e-06 -5.5094074e-07
000190 d4 f3 0d b5 0d 16 0d 37 01 f9 5d b6 ca bb a2 36
       -5.288141e-07 8.409389e-06 -3.3076506e-06 4.8498378e-06
0001a0 b9 7b fd b4 97 bf a9 35 c2 b6 35 37 82 ed 31 b6
       -4.7214942e-07 1.2647241e-06 1.0830992e-05 -2.6513303e-06
0001b0 eb 73 e3 36 4a 4f 49 36 90 46 c9 b6 b9 e4 77 36
       6.778622e-06 2.9997486e-06 -5.9984814e-06 3.6939002e-06
0001c0 74 1b c6 36 f6 f0 6e b5 86 99 0c 36 a2 8a 79 36
       5.904056e-06 -8.9012553e-07 2.0950988e-06 3.7184586e-06
0001d0 7e 29 0f b6 a8 52 41 37 b8 2d 29 36 00 00 00 00
       -2.1332812e-06 1.1522941e-05 2.5209574e-06 0.0
0001e0 67 e7 69 b6 4b 59 b1 36 f4 1b 59 36 72 f8 18 b6
       -3.48544e-06 5.285406e-06 3.235179e-06 -2.279438e-06
0001f0 52 e6 c1 b6 55 ab 42 36 54 e0 3a 37 ca ce e2 36
       -5.778661e-06 2.900798e-06 1.1138694e-05 6.7593983e-06
000200 4c 75 54 b5 39 2a 34 b6 d1 7a 05 37 cc 4c e1 36
       -7.9146844e-07 -2.6846667e-06 7.956013e-06 6.714463e-06
000210 3b d1 f2 b6 3a cc 8b b6 7a 1c 20 37 25 a0 ef b6
       -7.2365197e-06 -4.166298e-06 9.543373e-06 -7.1413983e-06
000220 4b 03 88 36 71 80 46 36 82 0e ee 35 24 c7 47 36
       4.053499e-06 2.9579062e-06 1.7736604e-06 2.9769226e-06
000230 91 f5 3b 37 ab 7e 99 b5 4c 77 26 b7 d8 38 07 37
       1.1203244e-05 -1.1436254e-06 -9.922147e-06 8.059862e-06
000240 b4 47 13 b7 24 9e d4 35 6b dd 1d b6 80 31 1a b3
       -8.7785775e-06 1.5841256e-06 -2.3523705e-06 -3.590094e-08
000250 00 00 00 00 ed 74 f6 36 c0 69 fa 36 ce 0e 4d 37
       0.0 7.3449833e-06 7.4628915e-06 1.2222399e-05
000260 90 e4 30 b7 44 3b 4b b6 17 3c 8a b6 81 37 5c b7
       -1.0543634e-05 -3.0283854e-06 -4.119716e-06 -1.3125945e-05
000270 15 9b 72 b5 c5 e0 97 b6 28 b7 6a b5 f9 49 0e b5
       -9.03777e-07 -4.5263173e-06 -8.743832e-07 -5.3006767e-07
000280 77 c8 59 b7 39 6e 0e 37 94 05 e4 b5 f9 61 6d b5
       -1.2980882e-05 8.489523e-06 -1.6988947e-06 -8.843195e-07
000290 26 1f 76 b7 e7 90 d6 36 f9 b0 69 b6 a0 3a 6e b5
       -1.4669995e-05 6.394566e-06 -3.4822717e-06 -8.874722e-07
0002a0 28 2d b1 b6 e8 da ac 36 b0 98 0f b6 5f 98 0c 37
       -5.280268e-06 5.1514835e-06 -2.1397536e-06 8.380127e-06
0002b0 20 01 34 b6 80 3a 39 36 60 30 e8 b6 0d 43 d3 35
       -2.6822745e-06 2.76012e-06 -6.9197704e-06 1.5740239e-06
0002c0 e2 6d 0f b7 e0 76 2e b3 78 4f 95 b7 9e 13 20 36
       -8.549048e-06 -4.0620648e-08 -1.779919e-05 2.3853277e-06
0002d0 a9 fb 5b b7 10 df 39 b5 18 60 24 b6 d8 f6 b2 b3
       -1.3112011e-05 -6.924247e-07 -2.4493838e-06 -8.3336715e-08
0002e0 58 26 f4 b4 a4 5a 60 36 71 72 f0 b6 ba e5 36 35
       -4.547644e-07 3.343136e-06 -7.16588e-06 6.813458e-07
0002f0 32 f0 2d b5 0c d5 b4 b6 cf b3 33 b7 6a b0 11 b7
       -6.479705e-07 -5.38922e-06 -1.0711096e-05 -8.683748e-06
000300 f0 a2 77 36 6e bc ed b5 c2 b2 7c 36 46 30 e4 36
       3.690071e-06 -1.7712716e-06 3.7654977e-06 6.8005493e-06
000310 bf 16 51 36 f6 f3 08 36 d7 e3 9c 36 e3 12 f1 b6
       3.1156667e-06 2.0407583e-06 4.6756863e-06 -7.1845584e-06
000320 6c ad 3f 36 e4 4f 7f b6 03 0b 07 37 54 c8 8c 35
       2.8562163e-06 -3.8044464e-06 8.049191e-06 1.0489116e-06
000330 e2 31 70 b2 5c 2e 86 b5 6c 17 9d 36 60 5e 60 b7
       -1.3981181e-08 -9.99727e-07 4.6816913e-06 -1.3373414e-05
000340 74 f6 db 34 fe cd 1d b6 f8 28 0b 37 7a 70 8f 36
       4.0971247e-07 -2.3514726e-06 8.294584e-06 4.274826e-06
000350 04 00 00 00 e6 d4 6d 37 9a cf e0 36 e2 ef fd 36
       6e-45 1.417587e-05 6.699888e-06 7.5679136e-06
000360 b2 52 02 b7 ca 1e 9d b5 7d f6 7e 36 e0 00 2e 36
       -7.767858e-06 -1.1706372e-06 3.7992424e-06 2.592853e-06
000370 34 ea 60 b5 12 5c 00 b6 fa bb 02 b6 55 a1 2a 36
       -8.3787313e-07 -1.9127078e-06 -1.9480926e-06 2.5425882e-06
000380 65 7f 72 b6 55 35 c0 b5 3f 3d 00 b7 5c ad 1a b7
       -3.6134963e-06 -1.4320636e-06 -7.6436545e-06 -9.219479e-06
000390 77 a9 8c b6 52 33 df 36 b8 08 9b b6 fc ed 91 b6
       -4.1920534e-06 6.6518924e-06 -4.620375e-06 -4.349042e-06
0003a0 2a 03 0d b7 5f 60 03 b7 87 49 0b b7 ec 9e a2 36
       -8.404992e-06 -7.830647e-06 -8.302165e-06 4.846477e-06
0003b0 d0 f7 8a b5 5e 3f 95 b5 a8 a7 d3 33 ec ee 43 37
       -1.0353924e-06 -1.1119807e-06 9.85595e-08 1.1678534e-05
0003c0 16 4b ed b6 dd 45 bc 36 9a c7 b3 b6 aa ed 80 b6
       -7.0718916e-06 5.6109698e-06 -5.3578524e-06 -3.842365e-06
0003d0 35 e4 36 36 22 2c aa 35 84 1d 0c 36 7a 3b b4 b6
       2.7252947e-06 1.2678831e-06 2.0878806e-06 -5.371342e-06
0003e0 f8 90 02 34 20 95 b8 b4 36 5e aa b6 37 6a 9b b6
       1.2159933e-07 -3.4381173e-07 -5.0773624e-06 -4.631725e-06
0003f0 f7 65 10 b7 9d 74 94 b7 73 98 20 b6 87 ec 27 36
       -8.606809e-06 -1.7697277e-05 -2.3930595e-06 2.5022616e-06
